Data/gat_model.pth (torch, 222701 bytes, 18 tensors)

layer1.att_src f4 [1, 2, 64]
0	0x3d886aba	0.066609815
1	0xbe62f146	-0.22162351
2	0x3e88a2ff	0.26686856
3	0xbe84ad8f	-0.25913665
4	0xbe51d5a8	-0.2049166
5	0xbe26a8c7	-0.16275321
6	0xbe6f6920	-0.23379946
7	0xbe1bd637	-0.15218435
8	0xbe5adb1c	-0.21372646
9	0xbe6127d7	-0.21987854
10	0x3c6bea1a	0.014399076
11	0x3d78d2a8	0.060747772
12	0xbe4b0f7e	-0.19830129
13	0x3d4b0c0f	0.049572047
14	0x3e962cf9	0.29331186
15	0x3e741001	0.2383423
16	0x3e393d0c	0.18089694
17	0xbd59bb68	-0.05315724
18	0xbdce0b83	-0.100607894
19	0x3bd8c6f2	0.006615513
20	0xbe5fbb65	-0.21848829
21	0xbdd262fd	-0.10272787
22	0xbd305d7c	-0.043057904
23	0x3e555997	0.20834957
24	0xbe379e21	-0.17931415
25	0x3da01172	0.078158274
26	0x3c4c1d5b	0.012458171
27	0xbe22a017	-0.15881382
28	0xbe8f5de3	-0.28001317
29	0xbe164bf8	-0.14677417
30	0x3d389123	0.04506029
31	0xbe4cf12a	-0.20013872
32	0x3d500398	0.050784677
33	0x3d3a4673	0.04547734
34	0xbe2d14f3	-0.16902523
35	0x3df65e36	0.12029688
36	0x3e254416	0.16139254
37	0x3dfaa06d	0.1223763
38	0x3e86a010	0.26293993
39	0xbe889547	-0.2667639
40	0x3d30c9c8	0.043161184
41	0xbccca68c	-0.02498176
42	0xbe8860f6	-0.26636475
43	0xbe971bc7	-0.2951338
44	0xbe1335ec	-0.14376038
45	0xbe72dc9f	-0.23716973
46	0x3d911be4	0.07085398
47	0xbe7c8821	-0.24661304
48	0x3e884156	0.26612347
49	0x3e940eee	0.2891764
50	0xbce2b507	-0.027674211
51	0xbe92a931	-0.28644708
52	0x3d4e9a17	0.05043992
53	0x3d581c38	0.052761286
54	0x3e8e1a28	0.2775433
55	0x3e5fb097	0.21844707
56	0x3db19208	0.086704314
57	0xbcbc9325	-0.023019383
58	0xbe2573ae	-0.1615741
59	0xbe8ab193	-0.27088603
60	0x3cc59261	0.02411765
61	0x3e5e67e7	0.21719323
62	0xbd99cab8	-0.07509369
63	0x3e879d4d	0.26487198
64	0x3d2118fe	0.039330475
65	0x3ceaf829	0.028682785
66	0x3e28d570	0.1648767
67	0xbce2fd72	-0.027708743
68	0xbdc3fbbf	-0.09569501
69	0x3e18aacb	0.14908902
70	0xbc5bf2da	-0.0134246
71	0xbe2c27f4	-0.16812116
72	0xbe5ab51f	-0.21358155
73	0xbe48c8b5	-0.19607814
74	0xbe0a89bc	-0.13529104
75	0xbe447da3	-0.19188552
76	0x3e113914	0.1418193
77	0x3e185393	0.14875631
78	0xbc686d02	-0.014186146
79	0xbe7bde68	-0.2459656
80	0x3d299667	0.0414032
81	0x3e83aff8	0.2572019
82	0xbe8c384d	-0.27386704
83	0x3e8fad39	0.28061846
84	0x3e46d698	0.19417799
85	0x3d2a11be	0.041520827
86	0xbde480c6	-0.11157374
87	0xbe593245	-0.21210583
88	0xbdb29397	-0.08719557
89	0xbe5056d6	-0.20345625
90	0xbd293846	-0.041313432
91	0xbe1afed6	-0.15136275
92	0xbd0070a7	-0.031357434
93	0xbe88bb56	-0.26705426
94	0x3cb146d4	0.021640219
95	0x3e096bc6	0.13420019
96	0x3e0fd559	0.1404623
97	0x3e799684	0.24373823
98	0xbe9182c8	-0.2842009
99	0xbd193b5b	-0.03741012
100	0xbe825acc	-0.25459898
101	0x3dcf6799	0.101271816
102	0xbe165c78	-0.14683712
103	0x3db04865	0.08607558
104	0x3e9ce5ac	0.30643976
105	0x3dd8aa9c	0.10579416
106	0xbe076f9e	-0.13226172
107	0xbe41d1f9	-0.18927754
108	0xbd9737a6	-0.07383661
109	0x3e6f4153	0.23364763
110	0x3e8606e3	0.2617713
111	0x3e8bd879	0.27313593
112	0xbdfd9ab3	-0.12383022
113	0xbe91fae7	-0.28511736
114	0x3ce2b48c	0.027673982
115	0xbe6ec87e	-0.23318669
116	0x3e9d5363	0.30727682
117	0x3df6b354	0.12045923
118	0x3e9a4044	0.30127156
119	0xbd369fd6	-0.044586025
120	0x3e2b127f	0.16706274
121	0xbd72b8fd	-0.05925845
122	0xbe43e9a0	-0.1913209
123	0xbe7d35aa	-0.24727502
124	0xbe3770ef	-0.17914174
125	0x3cbaa439	0.022783386
126	0x3e1f106c	0.15533608
127	0x3e77395a	0.24142972

layer1.att_dst f4 [1, 2, 64]
0	0x3e0083cb	0.12550275
1	0x3e315421	0.17317249
2	0xbe93ff73	-0.2890583
3	0x3dea15d2	0.11429943
4	0xbd5a3579	-0.05327365
5	0xbde2da41	-0.11076785
6	0xbe4d293e	-0.20035264
7	0x3e591ac7	0.21201621
8	0x3e6ec39a	0.23316804
9	0x3dfdeabf	0.1239829
10	0xbe8f4f13	-0.27990016
11	0x3e03fdbc	0.1288976
12	0xbc3fc447	-0.011704511
13	0x3e7586b0	0.2397716
14	0x3e5e3fba	0.21703997
15	0x3e66ff73	0.22558384
16	0xbe149ad7	-0.14512192
17	0xbda0bb65	-0.07848243
18	0xbccd0777	-0.025027974
19	0xbe454e8f	-0.19268249
20	0xbe3d6e7c	-0.18499178
21	0xbbde9c19	-0.0067935106
22	0x3e8af7e0	0.2714224
23	0x3e8d6b4e	0.2762093
24	0xbe8b4e7f	-0.27208325
25	0xbe3c9a28	-0.18418181
26	0xbd8c7dda	-0.06859942
27	0x3e5ea220	0.21741533
28	0xbd93c134	-0.07214585
29	0xbe8b6b3c	-0.2723025
30	0x3e563c56	0.20921454
31	0x3e1d0b92	0.15336445
32	0xbe84c389	-0.2593043
33	0xbe89479c	-0.26812446
34	0x3ccf56db	0.02530997
35	0x3d57e217	0.05270585
36	0xbd52457d	-0.0513358
37	0xbe923672	-0.28557163
38	0xbe1e8ee6	-0.15484199
39	0xbd6d68ab	-0.057961147
40	0x3d9e7b66	0.0773838
41	0xbe8fafc6	-0.28063792
42	0x3e4543bd	0.19264121
43	0x3def7521	0.116922624
44	0xbe24ac16	-0.1608127
45	0x3e454ac5	0.19266804
46	0x3d3dbb98	0.04632148
47	0x3dc6ad7e	0.0970106
48	0x3d9d610c	0.07684526
49	0xbe4d91cb	-0.20075147
50	0xbe13075a	-0.14358273
51	0x3c43f876	0.011961093
52	0x3e1fc95c	0.15604156
53	0xbe2cee26	-0.16887721
54	0xbe93455b	-0.28763852
55	0xbe58a0fa	-0.21155158
56	0xbe8ffc41	-0.28122142
57	0x3e49c33e	0.19703385
58	0x3e40c970	0.18826842
59	0xbe904d90	-0.28184175
60	0xbe735a6c	-0.23764962
61	0xbba12170	-0.004917316
62	0x3e546abf	0.20743845
63	0x3e2e6849	0.17031969
64	0x3dcea9eb	0.10091003
65	0xbd4b138f	-0.0495792
66	0xbd998d58	-0.07497662
67	0xbe5b5d2b	-0.2142226
68	0x3c2d5912	0.010580318
69	0x3e4b6b0b	0.19865052
70	0xbe88ec09	-0.2674258
71	0x3da43019	0.080169864
72	0xbe788f4b	-0.24273412
73	0x3e32312e	0.17401573
74	0xbdd379a9	-0.10325939
75	0xbe728e72	-0.23687151
76	0x3e48186d	0.19540568
77	0xbe3895a8	-0.1802584
78	0x3e47d048	0.19513047
79	0x3e15b344	0.14619166
80	0xbc7f39aa	-0.015577713
81	0xbe2d2154	-0.16907245
82	0xbe926856	-0.28595227
83	0x3e50b2fa	0.20380774
84	0xbd893a9e	-0.067006335
85	0x3e303dea	0.17211118
86	0xbd303157	-0.043015804
87	0x3e909b87	0.28243658
88	0x3dc8bf83	0.09802153
89	0xbdc61141	-0.0967126
90	0xbe2e58b7	-0.1702603
91	0x3e020eb8	0.12700927
92	0x3e4dfaf8	0.20115268
93	0x3da0d1c1	0.078525074
94	0x3e7d4643	0.24733834
95	0x3e7bed62	0.24602273
96	0x3e8c7fc0	0.27441216
97	0x3d412fbb	0.04716466
98	0x3e2e55f3	0.17024975
99	0x3c37a15a	0.011207903
100	0xbe88a282	-0.26686484
101	0x3cf20aa6	0.029546093
102	0xbdf30eca	-0.11868055
103	0xbe23dbf9	-0.16001882
104	0x3e8d94f9	0.2765272
105	0x3d80e5e0	0.06293845
106	0x3e4dfa9a	0.20115128
107	0x3dc78824	0.09742764
108	0xbe8454c3	-0.25845918
109	0x3e94c088	0.2905314
110	0xbd8f987b	-0.07011505
111	0xbdb0d786	-0.08634858
112	0x3e10ceb5	0.14141352
113	0x3e3936ae	0.18087265
114	0x3de69cc7	0.11260372
115	0xbcec9d00	-0.028883457
116	0x3e00757f	0.12544821
117	0x3e938645	0.28813377
118	0xbe6e3cef	-0.23265432
119	0xbd8bd393	-0.06827464
120	0x3e186afd	0.14884563
121	0x3e4282c6	0.18995199
122	0x3df85745	0.1212602
123	0xbe8c9521	-0.27457526
124	0xbdbe1642	-0.09281589
125	0x3ddb8689	0.1071902
126	0x3e7eb123	0.2487226
127	0x3e50ba97	0.20383678

layer1.bias f4 [128]
0	0x3a6c5451	0.00090152497
1	0xbc1bbb97	-0.009505174
2	0x3ae925af	0.001778772
3	0xb98df58f	-0.0002707657
4	0xbb2d47d8	-0.0026440527
5	0x3c195238	0.009357981
6	0x3bff19b0	0.0077850446
7	0x3b9e04b0	0.004822336
8	0x3ca16696	0.019702237
9	0x3a7da438	0.00096756546
10	0xb9ab3355	-0.00032653907
11	0x3ac14fe2	0.0014748538
12	0x3b85c0f7	0.004081841
13	0x3bd6d75b	0.006556434
14	0xbc11e3fa	-0.0089044515
15	0x3a40aab7	0.0007349657
16	0xb9b15936	-0.00033826538
17	0xb919a03c	-0.00014650909
18	0xbbafd6df	-0.005366191
19	0xbb00a80e	-0.0019631418
20	0x3bcf1ca2	0.006320552
21	0xbb17edf2	-0.0023182598
22	0x3c8ea9e3	0.017414993
23	0x3bf2e73b	0.0074128187
24	0x3c57a535	0.013161947
25	0x3bb8c72d	0.005638978
26	0x3aca76eb	0.0015446817
27	0xbc11e723	-0.008905205
28	0xbc03f5bb	-0.008054192
29	0xbaaa917e	-0.0013013331
30	0x3c2b3247	0.010448999
31	0x3c4ced4e	0.01250775
32	0x3c4bd198	0.012440108
33	0xbbe2a099	-0.0069161174
34	0x3baaea11	0.005215891
35	0x3b17c44c	0.0023157774
36	0xbb715e37	-0.0036829838
37	0x3c464756	0.012101969
38	0x3c4479a3	0.011991891
39	0xbbc2e869	-0.0059481156
40	0xbb6b4950	-0.0035901852
41	0x3c5b3f78	0.013381831
42	0x3b063033	0.0020475506
43	0x38594a00	5.180575e-05
44	0xbb22a392	-0.0024816734
45	0xbaa929e1	-0.0012906158
46	0x3c08d715	0.008352061
47	0xbad7bf9a	-0.00164603
48	0x3b57a9c9	0.0032907596
49	0x3c750e1a	0.014956975
50	0x3b951464	0.00454955
51	0xbb96ee09	-0.0046060127
52	0x3c091077	0.008365742
53	0x3bc0e39c	0.005886508
54	0x3a66766d	0.00087914505
55	0x3c4ef822	0.012632402
56	0x3ba36a53	0.00498704
57	0xbb78766d	-0.0037912384
58	0x3c0ea712	0.008706825
59	0x3c45eba7	0.01208011
60	0x3c079366	0.008274889
61	0x3b71b19d	0.0036879547
62	0x3bf565ba	0.0074889334
63	0x3c0d9fcf	0.008644058
64	0x3c133e25	0.008986984
65	0xbc335940	-0.010946572
66	0x3c5285b1	0.012849257
67	0x3af8bded	0.0018977501
68	0x3b5078be	0.003181025
69	0x3ae477e2	0.0017430747
70	0x3c82bfdf	0.015960632
71	0x3bb441a7	0.0055009904
72	0x3b46f2f5	0.0030357216
73	0x3c5a8ed7	0.01333972
74	0x3b26ee34	0.002547157
75	0xb9d4ba99	-0.00040574817
76	0xbb9f08ca	-0.0048533427
77	0xbba3db24	-0.005000489
78	0x3abeb09f	0.0014548487
79	0x3c4fce7b	0.012683506
80	0x3c11a4fb	0.008889432
81	0xbb8a0245	-0.0042116963
82	0x3c173a82	0.009230258
83	0x3c212699	0.009835863
84	0x3a918fca	0.0011105475
85	0x3c54041e	0.012940435
86	0x3b05e8ee	0.0020433026
87	0x39c7ab19	0.00038083715
88	0x3b72afaf	0.0037030985
89	0x3bef939a	0.0073112966
90	0xbc108b74	-0.008822311
91	0x3bb12b14	0.0054067466
92	0x3b526380	0.0032102764
93	0x3c211063	0.009830567
94	0x3bf122d9	0.0073588905
95	0x3ba5a70c	0.005055314
96	0xbbc97375	-0.0061477968
97	0xbaa802fb	-0.0012818271
98	0xbb9d905e	-0.0048084697
99	0x3bb73bce	0.005591846
100	0xbb9fadfc	-0.0048730355
101	0x3baf557b	0.0053507662
102	0x3bd3f30d	0.006468183
103	0xbaf799aa	-0.00188904
104	0xbc4891d4	-0.012241799
105	0xbaadff48	-0.0013274932
106	0xbb93cb8a	-0.0045103477
107	0xbbd66444	-0.0065427143
108	0x396a4392	0.00022341151
109	0x3bcc4da3	0.006234841
110	0xbb43725d	-0.0029822804
111	0xbbc8e90c	-0.006131297
112	0x3b629dfe	0.0034579034
113	0x3c8526f3	0.016253924
114	0x3b84576b	0.0040387413
115	0x3c3f32d9	0.011669838
116	0xbac90014	-0.0015335106
117	0x3c33154f	0.010930373
118	0x3bf27ac9	0.007399891
119	0xbb3361bc	-0.0027371487
120	0xbba9a992	-0.005177685
121	0x3bd91201	0.0066244607
122	0xbb3cf6af	-0.0028833558
123	0x3b9e7e11	0.0048368056
124	0x3c46571b	0.0121057285
125	0xbbe65259	-0.0070288596
126	0x3abf9a14	0.0014618062
127	0xbc474981	-0.012163521

layer1.lin.weight f4 [128, 91]
0	0x3da62104	0.08111766
1	0xbd73d464	-0.059528723
2	0xbe05269f	-0.13003014
3	0xbb9becbe	-0.0047584465
4	0xbd5ce2d7	-0.05392727
5	0xbe0c3301	-0.13691331
6	0x3d156b84	0.036479488
7	0x3c6760ad	0.01412217
8	0x3da747c1	0.08167983
9	0x3ce759f9	0.028241144
10	0xbdabd901	-0.083909996
11	0xbe24983a	-0.16073695
12	0x3dcd1b27	0.100149445
13	0xbdcfb50f	-0.10141956
14	0x3e0be2a9	0.13660683
15	0x3d47ecb3	0.04880972
16	0x3dc4fe9b	0.09618875
17	0x3e26c9e5	0.16287954
18	0x3c28a39d	0.010292915
19	0xbd90b9f0	-0.07066715
20	0xbddd4431	-0.10804022
21	0xbad092a8	-0.0015912848
22	0xba0ca30a	-0.0005364871
23	0xbe0ff28a	-0.14057365
24	0xbcad85d4	-0.021181978
25	0xbe1c0104	-0.15234762
26	0x3e1cecb6	0.15324673
27	0x3da2af2e	0.07943569
28	0xbe04250c	-0.12904757
29	0x3cf357a0	0.029704869
30	0x3cda75a0	0.026667416
31	0xbd8e04a9	-0.069344826
32	0xbc222ed7	-0.009898863
33	0x3c05bbe7	0.008162475
34	0x3e0bc691	0.13649966
35	0x3d897d7e	0.06713389
36	0x3df8e7fb	0.12153622
37	0x3dcd3a8a	0.10020931
38	0x3e171ad8	0.14756334
39	0x3dd647d3	0.10462918
40	0xbe184d6c	-0.14873284
41	0x3d94ab22	0.072592035
42	0xbe18544d	-0.14875908
43	0xbc40f2c8	-0.011776634
44	0xbda9b5f4	-0.08286658
45	0x3e052860	0.13003683
46	0x3d4b4f1b	0.049635988
47	0x3de74e57	0.11294239
48	0xbd0404e8	-0.03223124
49	0x3be07241	0.0068495576
50	0x3e020ec3	0.12700944
51	0x3e0997f6	0.13436875
52	0x3e323a3c	0.17405027
53	0xbe12f844	-0.14352518
54	0xbdd8b05b	-0.10580512
55	0xbd98e0c0	-0.07464743
56	0xbcdf8e5e	-0.027289566
57	0x3e246aa8	0.16056311
58	0x3e0a7560	0.13521338
59	0x3cb3708d	0.021904254
60	0xbda64707	-0.08119016
61	0xbe0a9ca0	-0.1353631
62	0x3e09ab27	0.13444196
63	0x3dfe99a3	0.12431648
64	0xbe22f889	-0.15915121
65	0xbdd31a7a	-0.103077844
66	0x3d98457e	0.074351296
67	0xbe3a4ac6	-0.18192586
68	0xbdb656fa	-0.08903308
69	0x3dd00dc6	0.10158877
70	0xbe163552	-0.14668778
71	0xbdc8ad69	-0.097987
72	0xbd8a57f1	-0.06755055
73	0x3e31ea45	0.17374523
74	0xbcd40240	-0.02587998
75	0x3e22d0ef	0.15900014
76	0x3e07e7ed	0.13272066
77	0x3b9bacf4	0.004750842
78	0xbe235e88	-0.1595403
79	0xbe0dbf19	-0.13842429
80	0xbd815128	-0.063143075
81	0xbcdd8e1c	-0.027045302
82	0x3df85ce4	0.121270925
83	0xbcd9f686	-0.02660681
84	0x3dc435a6	0.09580545
85	0x3d978cc7	0.07399898
86	0x3db620d3	0.088929795
87	0x3d915a87	0.07097345
88	0xbe1751f1	-0.14777352
89	0xbdfef55d	-0.12449143
90	0xba4f3bf6	-0.0007905358
91	0xbdbcb622	-0.092144266
92	0x3e07eca9	0.13273872
93	0x3c1d8543	0.009614292
94	0x3cd3d097	0.0258563
95	0x3d68d29a	0.05684147
96	0x3e07c1de	0.13257548
97	0x3e33a4f4	0.17543393
98	0x3d8a12d2	0.06741871
99	0x3ddbf78a	0.10740574
100	0x3df42e16	0.11922853
101	0x3d86228d	0.06549559
102	0xbe0d8a66	-0.13822326
103	0xbe1e348d	-0.15449734
104	0xbd589937	-0.052880492
105	0x39fa838e	0.00047781732
106	0x3bfb7ded	0.0076749236
107	0xbdde9069	-0.10867388
108	0xbd8c339c	-0.06845781
109	0x3d2ca479	0.04214904
110	0x3e1d4708	0.15359128
111	0x3d33c891	0.043892447
112	0x3dc8ddf6	0.09807961
113	0x3df0b1e9	0.11752684
114	0xbd19c000	-0.03753662
115	0xbc889698	-0.016673371
116	0xbdd3891c	-0.10328886
117	0xbdf1d63e	-0.118084416
118	0x3ca3ee5c	0.02001112
119	0x3de34854	0.1109778
120	0xbdbe9dff	-0.09307479
121	0x3dc9f98e	0.09862052
122	0xbd19d9a8	-0.03756109
123	0xbd7119b1	-0.05886239
124	0xbdc66d12	-0.09688772
125	0xbd37d7d5	-0.044883568
126	0xbb9e74ea	-0.0048357146
127	0xbcdbfbd2	-0.026853476
128	0xbcb40bcb	-0.02197828
129	0xbd74c073	-0.059753846
130	0x3de3b8b5	0.111192144
131	0xbe02e003	-0.12780766
132	0xbda89e24	-0.08233288
133	0x3d729c42	0.05923105
134	0x3df4718a	0.11935718
135	0xbda09533	-0.078409575
136	0x3cdcc54b	0.026949545
137	0xbdb85a69	-0.09001619
138	0x3e10e5a0	0.14150095
139	0x3e1110f8	0.1416663
140	0x3d8642aa	0.06555684
141	0x3da7243c	0.08161208
142	0x3e05c32b	0.13062732
143	0xbc0d3734	-0.0086191185
144	0x3d927c48	0.07152611
145	0xbe03833a	-0.12843028
146	0x3d607038	0.05479452
147	0xbccd5426	-0.02506454
148	0x3c7c0e0a	0.015384207
149	0x3df1b390	0.11801827
150	0xbd5b9f34	-0.053618625
151	0x3e16616e	0.14685604
152	0x3e0f53ee	0.1399686
153	0x3c87322d	0.016503418
154	0x3db51c36	0.088432714
155	0x3dc9f127	0.09860449
156	0xbd61a00a	-0.055084266
157	0xbdafd625	-0.08585767
158	0xbc1f2bb0	-0.009715006
159	0xbc45f749	-0.012082883
160	0xbddaf464	-0.10691145
161	0x3d6db0e2	0.058030017
162	0xbe1081d9	-0.14112033
163	0xbd37e26d	-0.04489367
164	0xbe1c710e	-0.15277502
165	0xbe25d647	-0.16195022
166	0xbe1f6e77	-0.15569483
167	0xbdae3231	-0.08505667
168	0x3d6143de	0.054996364
169	0xbdce5eef	-0.10076701
170	0x3dcd2bad	0.10018096
171	0xbd9033c0	-0.070411205
172	0x3e136ce1	0.14397003
173	0xbcbed1ee	-0.023293462
174	0x3c82b1bc	0.015953891
175	0xbd8d9a33	-0.06914177
176	0xbde213aa	-0.11038907
177	0x3dd108a6	0.10206728
178	0xbdeec39d	-0.11658404
179	0x3e0487b6	0.12942395
180	0x3dcad76e	0.09904371
181	0xbd23b3d3	-0.039966416
182	0xbd946ac6	-0.07246928
183	0xbdb711bc	-0.089389294
184	0x3d10c3dc	0.035343036
185	0x3c04f176	0.008114209
186	0x3db70e44	0.08938268
187	0xbd9445bb	-0.072398625
188	0x3d2f0ebf	0.042738672
189	0xbd9b39d9	-0.07579393
190	0x3d2c0657	0.041998234
191	0xbd827471	-0.06369866
192	0x3d83bd55	0.064325966
193	0x3b8887cb	0.0041665784
194	0xbd1fc6b7	-0.03900787
195	0xbb69d563	-0.0035680167
196	0xbdfad035	-0.122467436
197	0x3e1e8a2d	0.15482397
198	0xbe296142	-0.16541007
199	0x3b8e8320	0.0043491274
200	0xbe0052df	-0.12531613
201	0x3e03515b	0.12824003
202	0xbdb27859	-0.08714361
203	0x3dfe6aba	0.124227
204	0x3d8ef5c1	0.069804676
205	0xbde119fd	-0.10991285
206	0xbd5ad13c	-0.053422198
207	0x3d07fb62	0.03319872
208	0x3e2394a7	0.15974675
209	0x3d931ed7	0.071836166
210	0x3c653bda	0.0139913205
211	0x3db9eb63	0.090780996
212	0x3e28ecbb	0.16496556
213	0xbd66f02e	-0.056381397
214	0x3c79b2d6	0.015240392
215	0x3c9a38a8	0.018825844
216	0xbd9670b8	-0.07345718
217	0x3d486929	0.048928414
218	0xbc2f6411	-0.01070501
219	0xbda4030e	-0.08008395
220	0xbe1c2f41	-0.15252401
221	0x3d8bdc33	0.06829109
222	0xbd508c74	-0.050915197
223	0x3e03ce02	0.12871554
224	0x3dbef115	0.093233265
225	0xbda46abe	-0.08028172
226	0x3e0bd705	0.13656242
227	0x3e11ce70	0.14238906
228	0x3e1924a9	0.14955391
229	0xbe2089cd	-0.15677567
230	0xbde25192	-0.110507146
231	0xbcdb73e3	-0.026788658
232	0x3d42cd29	0.047558937
233	0x3d972a06	0.07381062
234	0x3d9196ab	0.07108816
235	0x3d919d3a	0.07110067
236	0x3c1b9ca2	0.009497793
237	0xbdb02146	-0.086000964
238	0x3d21fa88	0.039545566
239	0xbd8ffc00	-0.07030487
240	0x3ce6db01	0.028180601
241	0x3db314e3	0.08744218
242	0xbc8aaf03	-0.016929155
243	0x3d3fed0e	0.046856932
244	0x3d0b7fe1	0.0340575
245	0x3db46810	0.08808911
246	0xbd9c3860	-0.0762794
247	0x3d37ef4b	0.044905942
248	0xbd2e43c5	-0.0425451
249	0xbdae6e27	-0.08517104
250	0xbd7521b7	-0.059846606
251	0x3dcb6908	0.099321425
252	0xbe277100	-0.163517
253	0xbe00d6fc	-0.1258201
254	0xbd2d921b	-0.042375665
255	0xbd05a217	-0.032625284

layer2.att_src f4 [1, 2, 64]
0	0xbc3f9f40	-0.011695683
1	0xbe4ea551	-0.2018025
2	0x3dc8e1f2	0.09808721
3	0x3e84c0c5	0.2592832
4	0x3e62ebd0	0.22160268
5	0xbcbb0f79	-0.022834526
6	0xbe82f906	-0.25580615
7	0x3d9261e5	0.07147578
8	0xbe9281f5	-0.28614774
9	0x3d2e422f	0.042543586
10	0x3e16180d	0.14657612
11	0x3e93c6ff	0.2886276
12	0x3e948b32	0.29012448
13	0xbe7f8d18	-0.24956167
14	0xbe5c5a61	-0.21518852
15	0x3e2a78c7	0.16647635
16	0x3dba6d7f	0.09102916
17	0x3e01e6a5	0.1268564
18	0xbe9cfd83	-0.30662164
19	0x3e2f6602	0.17128757
20	0x3cb008a8	0.021488503
21	0xbda3d7ce	-0.08000146
22	0x3e078103	0.13232808
23	0xbe7010c7	-0.234439
24	0xbe1f1dee	-0.15538761
25	0xbe917b28	-0.28414273
26	0x3dd74a6b	0.10512241
27	0xbe21fd06	-0.15819177
28	0xbd8937cf	-0.06700098
29	0xbe89af00	-0.26891327
30	0x3d136671	0.035986368
31	0xbe87a447	-0.2649252
32	0x3e456e61	0.19280387
33	0x3e9e1f43	0.30883226
34	0x3e3f27a1	0.18667461
35	0xbe3c9334	-0.18415529
36	0xbdd571d8	-0.104221046
37	0xbe5581a9	-0.20850243
38	0xbe73cbd0	-0.23808217
39	0xbdc8dd99	-0.098078914
40	0xbe2dd120	-0.16974306
41	0x3e75a31f	0.23988007
42	0x3e614881	0.22000314
43	0x3cd01078	0.025398478
44	0x3e6f6f64	0.23382336
45	0x3e850ebc	0.25987804
46	0xbe371e65	-0.17882688
47	0x3dab3607	0.08359914
48	0xbe192d58	-0.14958704
49	0x3e850cf0	0.25986433
50	0x3e4ab80e	0.19796774
51	0x3d6f1017	0.058364954
52	0x3e07e3c9	0.13270487
53	0x3e9671e9	0.29383782
54	0x3e601328	0.21882308
55	0xbe001bf1	-0.12510659
56	0x3e88c1b7	0.26710293
57	0x3d58b03b	0.05290244
58	0xbe0055f4	-0.12532789
59	0x3e21f194	0.15814811
60	0x3e218841	0.15774633
61	0x3e800591	0.25004247
62	0xbe38132e	-0.17976066
63	0xbe6f500d	-0.2337038
64	0x3e528136	0.20557103
65	0xbe1864d6	-0.14882216
66	0x3ce73fa9	0.028228598
67	0xbdb6d015	-0.08926407
68	0x3e27df77	0.16393839
69	0xbdf320cf	-0.11871492
70	0xbe528df3	-0.20561962
71	0xbd0206bf	-0.031744715
72	0xbe2b69bf	-0.16739558
73	0xbe04c88e	-0.1296713
74	0x3e815ff1	0.2526851
75	0xbdafd6e4	-0.08585909
76	0x3e5c9f16	0.21545061
77	0x3dd81f8b	0.10552891
78	0xbd28a9fb	-0.04117773
79	0x3e87a709	0.26494625
80	0xbe12a508	-0.14320767
81	0x3e0f2d8b	0.13982217
82	0xbbb0b90c	-0.005393153
83	0xbe90c338	-0.2827394
84	0x3d110e66	0.035414122
85	0x3e8824c5	0.26590553
86	0xbc080aac	-0.008303326
87	0x3dd8252b	0.10553964
88	0xbe3c39f2	-0.1838148
89	0xbe73bb87	-0.23802005
90	0xbe803bc3	-0.25045595
91	0xbd386330	-0.045016468
92	0x3dbac81c	0.09120199
93	0x3dd436ec	0.10362038
94	0x3c184d1f	0.009295731
95	0x3d310e81	0.043226723
96	0x3df2c013	0.118530415
97	0xbda1967b	-0.0789003
98	0xbd564263	-0.052309405
99	0x3d6c721e	0.057726018
100	0x3e683065	0.22674711
101	0xbd81d3f0	-0.06339252
102	0xbe8c0c86	-0.27353305
103	0x3e793ac1	0.24338819
104	0xbd1eebb5	-0.038799006
105	0xbdb0f8e4	-0.08641222
106	0x3e932b96	0.2874419
107	0xbd4f91a2	-0.050675996
108	0x3d86eea2	0.06588484
109	0x3e6546bf	0.22390269
110	0x3d285fe3	0.04110707
111	0x3e2f40d6	0.17114577
112	0x3e964c1c	0.29354942
113	0xbd9fc846	-0.07801871
114	0xbe4162f7	-0.18885408
115	0x3e9402ef	0.28908488
116	0xbe6923b9	-0.22767533
117	0xbccbdb8a	-0.024884958
118	0xbc77a98d	-0.015116108
119	0xbe8bab83	-0.2727929
120	0x3c326ea9	0.010890641
121	0x3debdbf0	0.11516559
122	0xbe1acf8c	-0.15118235
123	0x3e37ce3b	0.17949764
124	0xbd060730	-0.0327217
125	0xbe468ae9	-0.19388928
126	0x3ea22819	0.31671217
127	0xbe8093fb	-0.251129

layer2.att_dst f4 [1, 2, 64]
0	0xbe38d56e	-0.18050167
1	0x3df1b870	0.11802757
2	0x3db9988b	0.090622984
3	0xbd4cb8f2	-0.049981065
4	0xbe72a12b	-0.23694293
5	0x3e37ad04	0.17937094
6	0x3d00acfb	0.031414967
7	0x3e6782df	0.22608517
8	0x3e2bf358	0.16792047
9	0x3e5c8da2	0.21538404
10	0x3e09cc57	0.13456856
11	0x3e4b94fd	0.19881053
12	0xbd6cedfd	-0.05784415
13	0x3df000ed	0.117189266
14	0xbe96f5fd	-0.2948455
15	0xbe30ddc6	-0.172721
16	0xbe8b0451	-0.2715173
17	0xbe76cdf4	-0.24102002
18	0x3dbe15f3	0.0928153
19	0xbe13321b	-0.14374582
20	0x3da17f98	0.07885665
21	0xbcbad337	-0.022805793
22	0x3e8c3094	0.27380812
23	0xbe69cdac	-0.22832364
24	0x3e6e10a6	0.23248538
25	0x3e6bffd9	0.23046817
26	0xbdddc6b2	-0.10828914
27	0xbe985d54	-0.29758704
28	0x3d4c429b	0.049868207
29	0xbdbe9478	-0.09305662
30	0xbe4e2b91	-0.20133807
31	0x3dca7fa8	0.0988763
32	0x3e4549b1	0.19266392
33	0xbe588d94	-0.21147758
34	0xbdf7791f	-0.12083649
35	0xbd4ae664	-0.049536124
36	0xbd916b31	-0.07100523
37	0x3dcb2988	0.09920031
38	0xbc116fe4	-0.008876774
39	0x3e0ac323	0.13551001
40	0x3dbe4742	0.09290935
41	0x3e7df6e7	0.24801217
42	0x3e41c8c1	0.18924238
43	0x3e2adf2e	0.16686699
44	0xbdbb44b1	-0.09143961
45	0xbd1cdaff	-0.03829479
46	0xbe1a9726	-0.15096721
47	0x3db56b8a	0.08858402
48	0x3ca9bfff	0.020721434
49	0xbe164237	-0.14673696
50	0xbe29a197	-0.16565548
51	0x3e17ca80	0.14823341
52	0x3d59546a	0.05305902
53	0xbe30c3cd	-0.17262192
54	0x3e08ab29	0.13346542
55	0xbc7c8f99	-0.015415096
56	0xbdf83b41	-0.12120677
57	0xbdc9d1a2	-0.098544374
58	0xbe90099d	-0.28132334
59	0x3d3be4d9	0.045872543
60	0xbe95c56e	-0.2925219
61	0xbde8d0b4	-0.11367932
62	0x3e712985	0.23550995
63	0xbcb55088	-0.022133127
64	0xbe278d4e	-0.16362497
65	0x3e770049	0.24121203
66	0xbe32844c	-0.1743328
67	0xbe501dfa	-0.20323935
68	0x3e7fa153	0.24963884
69	0xbd96e048	-0.07366997
70	0x3e0cc313	0.1374629
71	0xbdd65aa6	-0.104665086
72	0x3df789d3	0.12086835
73	0x3e31e912	0.17374066
74	0xbe46d7e3	-0.19418292
75	0xbe59bfa8	-0.21264517
76	0xbe396f6f	-0.18108915
77	0x3d4f3e57	0.05059656
78	0xbe59cd6c	-0.21269768
79	0x3dd1353b	0.10215231
80	0xbe4d8821	-0.2007146
81	0x3df97b1d	0.12181685
82	0x3e812892	0.25226265
83	0xbcb3c83a	-0.021946061
84	0x3d739291	0.05946595
85	0x3da84830	0.08216894
86	0x3d5a2ca1	0.053265218
87	0x3e479adc	0.19492668
88	0xbe77f0cc	-0.2421295
89	0x3e1f591d	0.15561338
90	0x3db0efd6	0.08639495
91	0x3d411dec	0.047147676
92	0xbd1c4053	-0.03814728
93	0x3e970495	0.29495683
94	0x3e85383d	0.2601947
95	0x3e4f4db7	0.2024449
96	0xbc8c954f	-0.01716104
97	0xbe3f9642	-0.18709663
98	0xbe46231c	-0.1934933
99	0x3da386be	0.079846844
100	0x3dd3cc62	0.10341717
101	0xbd000861	-0.03125799
102	0x3d2fbd8c	0.042905375
103	0x3be77986	0.0070640473
104	0x3db0def1	0.08636273
105	0xbe11d043	-0.14239602
106	0x3e1690bf	0.14703654
107	0xbe10acca	-0.14128414
108	0xbe3e423f	-0.18579958
109	0xbd227ca2	-0.03966964
110	0xbd94c9ab	-0.072650276
111	0x3dce7d9b	0.10082551
112	0xbe0085f1	-0.12551095
113	0x3dde35e5	0.10850123
114	0xbdc00899	-0.0937664
115	0xbe7c472e	-0.24636528
116	0xbe6ba2c7	-0.23011313
117	0x3da74901	0.08168221
118	0xbe76699b	-0.24063723
119	0x3e5c701c	0.21527141
120	0x3e848eef	0.258903
121	0xbda966ba	-0.08271547
122	0x3d02da77	0.031946626
123	0x3db78f91	0.0896293
124	0x3e2671ba	0.1625432
125	0x3e22f975	0.15915473
126	0xbdff52be	-0.12466954
127	0xbe2c6a01	-0.16837312

layer2.bias f4 [128]
0	0xbc11ff29	-0.008910933
1	0x3c1ebe61	0.009688945
2	0xbc5db8cc	-0.013532829
3	0x3ac71c7e	0.0015190986
4	0xbbb3cbcd	-0.0054869414
5	0x3aad6d73	0.0013231471
6	0x3bb2ddae	0.005458555
7	0x3c1969b1	0.009363578
8	0x3c99a0e8	0.018753484
9	0xbb01a8fe	-0.0019784565
10	0x3b54f08f	0.0032492017
11	0x3c89d948	0.01682724
12	0x3bfd1fc2	0.007724733
13	0x3b7db7c6	0.0038714274
14	0xbaae6303	-0.0013304654
15	0xbb7cf413	-0.0038597628
16	0xbbb239e1	-0.0054390286
17	0x3c0dde9d	0.008659032
18	0x3c32af6d	0.010906083
19	0x3b965fb8	0.0045890473
20	0x3bc2a1eb	0.0059397123
21	0x3ad9233b	0.0016566286
22	0x3b668b4f	0.003517825
23	0x3badda7d	0.005305587
24	0x3c0d00d6	0.008606156
25	0x3bbd3eed	0.0057753236
26	0x3b3f9c1b	0.0029237333
27	0x3c32ecd0	0.010920718
28	0xbbd61cb2	-0.0065341825
29	0x3af3d7da	0.0018603757
30	0x3afc86e4	0.0019266275
31	0x3c174798	0.009233378
32	0x3bd1c5f0	0.00640177
33	0x3c185ff6	0.009300223
34	0xbba49811	-0.0050230105
35	0x3b3108dd	0.002701334
36	0xb9d5a493	-0.00040749143
37	0xbb30f2b1	-0.0027000124
38	0x3b5a7a2e	0.0033336985
39	0xbb2b1ff0	-0.0026111566
40	0x3bb302da	0.0054629864
41	0xbb4cee4c	-0.0031269966
42	0x3ad9896b	0.001659674
43	0x3bb0e068	0.005397845
44	0x3c4a9252	0.012363987
45	0x3a8199bb	0.0009887734
46	0x3c09a927	0.0084021455
47	0xba35800d	-0.0006923683
48	0xba8e60a7	-0.0010862545
49	0x3b907271	0.0044081737
50	0x3b0b4f68	0.0021257047
51	0x3b2b5ce4	0.0026147896
52	0x3c3531f2	0.011059271
53	0x3be05df5	0.006847138
54	0xbb323f24	-0.002719828
55	0x3bff5cf0	0.0077930614
56	0xbb29a78b	-0.0025887217
57	0x3bffef78	0.0078105293
58	0xbbafa049	-0.0053596837
59	0xbae0007c	-0.0017089988
60	0x3ba75823	0.0051069423
61	0x3a5ac075	0.00083447184
62	0x3ba88626	0.005142945
63	0x390bfc77	0.00013350123
64	0x3bacdc2b	0.0052752695
65	0x3b5ab542	0.0033372198
66	0x3b28eb21	0.0025774913
67	0x3b925e55	0.0044668117
68	0x3c86c831	0.01645288
69	0x3bfd246c	0.007725289
70	0xbb400ab8	-0.0029303264
71	0xbc240851	-0.010011748
72	0x3b3854ff	0.0028126833
73	0x3aa605c1	0.001266651
74	0x3c0cd8fc	0.008596655
75	0xb9117152	-0.00013870493
76	0x3a68fbf0	0.0008887639
77	0x3c1d11f9	0.009586805
78	0xb9a8e016	-0.00032210414
79	0xbc115ac6	-0.00887174
80	0x3bb262a3	0.0054438873
81	0xba49f2b5	-0.00077037077
82	0x39657907	0.00021884228
83	0x3bebecd3	0.0071998625
84	0xbb8d74e5	-0.0043169134
85	0xbc025843	-0.007955614
86	0x3c620601	0.013795377
87	0x3b892860	0.0041857213
88	0x3add6d43	0.0016893524
89	0xbb21b042	-0.0024671708
90	0xbbd24eb4	-0.0064180735
91	0x3b0e1f8c	0.0021686284
92	0x3ccf7790	0.025325567
93	0x3c82e46b	0.015978059
94	0x397700a5	0.00023555996
95	0x3c24775c	0.010038223
96	0xbb18ea7e	-0.0023333128
97	0x3b926732	0.0044678682
98	0x3b7ea341	0.003885463
99	0x3b961239	0.004579809
100	0xbabac4b3	-0.0014249295
101	0xbb1616cd	-0.0022901774
102	0x3c101672	0.008794414
103	0x3be73a04	0.0070564765
104	0x3c677db3	0.01412909
105	0xbbcf4725	-0.0063256198
106	0xbb988b4e	-0.0046552783
107	0xbb35a1b9	-0.0027714802
108	0x3b9751b9	0.0046178964
109	0xb9a32a80	-0.00031121448
110	0xbb9a4a37	-0.004708554
111	0x3bc794b3	0.0060907244
112	0xbc5c71be	-0.013454853
113	0xbb9745ce	-0.0046164757
114	0x3c2507c6	0.010072654
115	0x3b1e9a03	0.0024200685
116	0x3bd0cb62	0.0063719014
117	0x3b89810c	0.004196292
118	0xbb8d80b0	-0.0043183193
119	0x3c9cf3c2	0.019159202
120	0x3b5089a3	0.003182032
121	0xbbf59059	-0.007494014
122	0x3b548854	0.003242989
123	0xbb915140	-0.0044347346
124	0x3c30045f	0.01074323
125	0x3a7c31ef	0.0009620478
126	0x3b469a89	0.0030304512
127	0xbb91a0e0	-0.0044442266

layer2.lin.weight f4 [128, 128]
0	0x3d173297	0.03691348
1	0xbe05b4b2	-0.13057211
2	0xbc3b2669	-0.011422732
3	0xbd7c3b69	-0.061580095
4	0x3da91d12	0.08257498
5	0x3c857fab	0.016296228
6	0x3dd5cf41	0.10439921
7	0xbdc7d8b3	-0.09758129
8	0xbdcae82f	-0.09907567
9	0x3da70597	0.08155363
10	0xbd7625ef	-0.06009477
11	0x3e13004f	0.14355586
12	0xbd78cf26	-0.060744427
13	0x3e0278b1	0.12741353
14	0xbde61cfb	-0.11235996
15	0x3def3ca4	0.11681488
16	0x3cfc4236	0.03079329
17	0xbdf4965f	-0.119427435
18	0xbdabf771	-0.08396805
19	0x3d059312	0.03261096
20	0x3dd484bf	0.10376882
21	0x3db0df74	0.0863637
22	0x3c91d242	0.017800454
23	0x3d4707da	0.048591472
24	0xbdba5ad5	-0.09099356
25	0x3e04dfd9	0.12976016
26	0xbd523fe0	-0.051330447
27	0xbc99ce4b	-0.018775126
28	0x3da2b4d6	0.07944648
29	0xbb0b124d	-0.0021220625
30	0x3d2b3c0a	0.041805305
31	0xbe04829f	-0.12940453
32	0xbdef7ff5	-0.11694328
33	0xbd9812a6	-0.07425432
34	0xbdcd6d7a	-0.100306466
35	0xbd661d2b	-0.05618016
36	0xbddd33f8	-0.10800928
37	0xbe17bce0	-0.14818144
38	0x3db11866	0.08647232
39	0xbd72d760	-0.05928743
40	0xbcb83f09	-0.022490995
41	0xbc30232a	-0.010750571
42	0xbddf7291	-0.10910524
43	0xbc8f5a81	-0.01749921
44	0xbb2cf178	-0.0026389044
45	0xbbfd8209	-0.0077364487
46	0x3d6ed530	0.05830878
47	0xbda06375	-0.0783147
48	0x3dd9c538	0.106333196
49	0x3cad2f3f	0.021140693
50	0xbe119374	-0.14216405
51	0x3d1c6aec	0.038187906
52	0xbe04a279	-0.12952603
53	0x3dccef14	0.10006538
54	0x3db830b1	0.08993662
55	0x3d01c17a	0.031678654
56	0xbe0ba3a2	-0.1363664
57	0x3ccc49c1	0.024937512
58	0xbd9d680b	-0.0768586
59	0xbd9ffe00	-0.078121185
60	0xbd65d9f3	-0.056116056
61	0xbc23d173	-0.009998667
62	0xbd6df72f	-0.05809706
63	0x3dec5047	0.11538749
64	0x3e0b45a6	0.13600788
65	0xbb8455ba	-0.0040385397
66	0xbdf92740	-0.121656895
67	0x3deb484f	0.11488401
68	0x3da9f032	0.08297767
69	0xbd9ffbe7	-0.078117184
70	0xbd972349	-0.07379777
71	0xbdbb6fb3	-0.09152164
72	0x3e0625e9	0.13100399
73	0xbe0bd3ef	-0.13655065
74	0xbde5d673	-0.112225436
75	0xbd9ac917	-0.07557886
76	0xbd1e04fa	-0.038578965
77	0x3cd2d815	0.025737802
78	0xbd20d126	-0.03926196
79	0x3c0d5f99	0.008628749
80	0xbdf68d24	-0.12038639
81	0x3b36bd04	0.0027883658
82	0xbdc53a80	-0.096302986
83	0xbe134e09	-0.14385237
84	0xbe1588a6	-0.14602908
85	0xbda8a891	-0.082352765
86	0x3d9dcc08	0.077049315
87	0xbdaad86a	-0.08342059
88	0xbd8d325b	-0.0689437
89	0xbcfbd680	-0.03074193
90	0x3d4cf665	0.050039668
91	0x3decd20f	0.11563503
92	0xbdbfe297	-0.093693905
93	0x3cf05b97	0.029340548
94	0x3d23c284	0.039980426
95	0xbd815182	-0.063143745
96	0xbd95f751	-0.073225625
97	0xbe0dd993	-0.13852529
98	0x3db213a0	0.086951494
99	0xbdb34ce0	-0.08754897
100	0x3c975ac6	0.018475901
101	0x3e001767	0.12508927
102	0xbe04eb9d	-0.12980504
103	0x3de4cf0a	0.11172302
104	0xbd61ebed	-0.055156637
105	0x3e07d084	0.13263136
106	0xbd54bd4f	-0.05193835
107	0x3dcfc686	0.10145287
108	0x3e0c9f14	0.13732558
109	0x3da1b487	0.07895761
110	0xbda1179f	-0.078658335
111	0xbde14722	-0.10999896
112	0x3deb8687	0.115002684
113	0xbc808288	-0.015687242
114	0x3deff54b	0.11716708
115	0x3c9ad525	0.018900463
116	0x3dd53e05	0.1041222
117	0xbce1e7b0	-0.027576298
118	0x3dc83ae6	0.09776859
119	0x3dd20bb9	0.10256142
120	0x3bb49908	0.005511407
121	0xbdf674a3	-0.120339654
122	0xbe079957	-0.13242088
123	0xbcf8c0e5	-0.030365417
124	0xbddbeab3	-0.10738125
125	0xbda94ed8	-0.082669914
126	0x3c32b016	0.01090624
127	0xbdc04da5	-0.093898095
128	0xbda9e592	-0.0829574
129	0x3e1269a8	0.14298117
130	0x3d707999	0.058709715
131	0xbcc4487e	-0.023960348
132	0xbe0e2c9c	-0.13884205
133	0xbd87bcbc	-0.06627795
134	0x3c455b5c	0.012045708
135	0x3d649597	0.055806722
136	0x3d94d6d8	0.07267541
137	0x3dc0a640	0.0940671
138	0xbdec2ad2	-0.11531605
139	0xbdf91a61	-0.121632345
140	0x3de6e42d	0.1127399
141	0x3df709c2	0.12062408
142	0x3d108655	0.03528436
143	0xbd3e0ff9	-0.04640195
144	0x3d6ff12a	0.0585796
145	0xbdd0095f	-0.101580374
146	0x3e04a1a6	0.12952289
147	0xbcf14e28	-0.029456213
148	0x3dbb016f	0.09131133
149	0xbdf4f0ea	-0.11960013
150	0x3c974083	0.018463379
151	0xbd0c0902	-0.034188278
152	0x3dfbaee9	0.12289221
153	0x3dea6d10	0.11446583
154	0x3d0f72f1	0.035021726
155	0xbde68af3	-0.11256971
156	0xbcfad644	-0.030619748
157	0x3e0d6abf	0.13810252
158	0xbdf93f64	-0.12170294
159	0x3d4e4729	0.050360832
160	0xbd92bcbd	-0.07164905
161	0xbe0dd05b	-0.13849013
162	0xbd572eb4	-0.052534774
163	0x3dc1a3bb	0.09455057
164	0x39a493e6	0.0003139071
165	0x3e0db547	0.13838683
166	0x3c882894	0.016620912
167	0x3e11cf9f	0.14239357
168	0xbcc5a465	-0.024126241
169	0xbda790b8	-0.081819
170	0x3e0c9413	0.13728361
171	0xbd8d87c3	-0.0691066
172	0xbd7a602c	-0.061126873
173	0xbdd564aa	-0.10419591
174	0x3d5d4894	0.054024294
175	0xbdc9c709	-0.09852416
176	0x3df10748	0.11768967
177	0x3e03624f	0.1283047
178	0x3e20f268	0.1571747
179	0xbdcfc577	-0.10145085
180	0xbdb12b1c	-0.086508006
181	0xbcb71529	-0.022348957
182	0xbd780238	-0.06054899
183	0x3d6668f3	0.05625243
184	0xbd1de9bb	-0.03855298
185	0x3d69b918	0.057061285
186	0x3de9956c	0.11405453
187	0x3e23f689	0.16012014
188	0x3d1c36f3	0.03813834
189	0xbba9e877	-0.0051851827
190	0x3d01a2ea	0.031649508
191	0xbbef5a0f	-0.007304437
192	0xbc2150ab	-0.009845893
193	0xbcab655b	-0.020922353
194	0x3b30080d	0.0026860267
195	0x3e133453	0.14375429
196	0xbb92ec25	-0.004483717
197	0x3e0021cc	0.12512892
198	0x3c2e31dc	0.010632005
199	0xbdaca7cc	-0.08430442
200	0xbe0768c4	-0.13223559
201	0x3de772eb	0.11301216
202	0xbd873fe0	-0.0660398
203	0x3d80531d	0.062658526
204	0xbc2ad880	-0.010427594
205	0xbde893f6	-0.11356346
206	0x3cd19156	0.025581997
207	0x3e113b0e	0.14182684
208	0xbd514391	-0.051089827
209	0x3e1e3f0e	0.15453741
210	0xbd754f69	-0.059890185
211	0x3b221eac	0.002473752
212	0xbd570885	-0.05249836
213	0xbdd8d9be	-0.10588406
214	0xbd934e9f	-0.0719273
215	0xbd086ae2	-0.033305056
216	0x3bf05f58	0.0073355846
217	0x3dab20f7	0.08355897
218	0x3dadc73b	0.08485266
219	0xbd875bc8	-0.06609303
220	0xbde12dcd	-0.10995064
221	0x3c836eec	0.016044103
222	0xbd87a8e5	-0.06624011
223	0xbd22b255	-0.039720852
224	0xbe11af8b	-0.1422712
225	0x3cd65e81	0.02616811
226	0x3d899b2c	0.0671905
227	0x3db727a3	0.08943107
228	0x3ce7d157	0.028298063
229	0x3e07817e	0.13232991
230	0x3c95d7df	0.018291412
231	0xbdc27fde	-0.09497045
232	0x3cf0a18b	0.029373905
233	0xbde93245	-0.11386541
234	0xbd0e53bb	-0.03474782
235	0x3de98526	0.11402349
236	0xbdd5a3ff	-0.104316704
237	0x3e129e00	0.14318085
238	0x3dcf83d5	0.10132567
239	0xbe06ccee	-0.13164112
240	0xbdbd5681	-0.09245015
241	0xbe079aeb	-0.1324269
242	0x3d04014b	0.032227796
243	0x3e366111	0.17810465
244	0xbda2ebf2	-0.07955159
245	0xbd27b9c3	-0.04094864
246	0xbdcad0ad	-0.09903083
247	0x3ddf7697	0.10911291
248	0xbe132109	-0.1436807
249	0x3d43f48c	0.04784064
250	0xba9b50ba	-0.001184962
251	0xbdf76997	-0.120806865
252	0xbc899ca8	-0.016798332
253	0x3db204e6	0.086923406
254	0x3e11da0f	0.14243339
255	0xbd71a9b6	-0.05899974

layer3.att_src f4 [1, 2, 64]
0	0x3e275649	0.16341509
1	0x3e243b16	0.16038164
2	0xbe18f031	-0.14935376
3	0xbd90a24f	-0.07062208
4	0xbe421b9a	-0.18955842
5	0x3e5361f2	0.20642832
6	0xbe73e007	-0.23815928
7	0xbd95c9f0	-0.07313907
8	0x3e9a388d	0.3012127
9	0xbd919b9f	-0.071097605
10	0xbe48e9b8	-0.19620407
11	0xbe905928	-0.2819302
12	0x3d7dc9e6	0.061960123
13	0xbe05199a	-0.12998047
14	0xbd7d7000	-0.06187439
15	0x3e5cb7dd	0.21554513
16	0x3e7b103f	0.24517916
17	0xbe786dbe	-0.24260613
18	0x3e2dd47d	0.16975589
19	0xbe79d2c7	-0.24396811
20	0x3e48c3eb	0.19605987
21	0xbe10e44b	-0.14149587
22	0x3cfc868c	0.030825876
23	0xbd7105ab	-0.058843296
24	0xbe117e45	-0.14208324
25	0xbe1078f7	-0.14108644
26	0x3e3dda4d	0.18540306
27	0x3e70776c	0.23483056
28	0xbe07c1b5	-0.13257487
29	0xbd565a4d	-0.05233221
30	0x3d8dd225	0.069248475
31	0x3e498b2b	0.19681995
32	0x3cc9ace3	0.024618572
33	0x3e74a202	0.23889926
34	0x3dcead72	0.10091676
35	0xbd94c50e	-0.07264148
36	0x3e6243fd	0.22096248
37	0xbe5806a6	-0.21096286
38	0x3e798120	0.24365664
39	0xbe2def85	-0.169859
40	0x3dc33221	0.09531046
41	0x3de98841	0.114029415
42	0x3bcdd6d4	0.006281713
43	0x3d97c6bb	0.07410952
44	0xbdca572f	-0.0987991
45	0x3e546c45	0.20744427
46	0xbc91a9c3	-0.017781144
47	0xbe15599c	-0.14584965
48	0x3c96885a	0.018375564
49	0x3e8829f5	0.2659451
50	0xbd5883b6	-0.052859984
51	0x3d608805	0.05481722
52	0x3d79acdd	0.06095587
53	0xbe495f06	-0.19665155
54	0x3e43952d	0.19099875
55	0x3e446534	0.19179231
56	0xbce221bc	-0.027603976
57	0x3e9e7cb6	0.30954522
58	0xbd0cc01d	-0.0343629
59	0xbe3c4957	-0.18387352
60	0x3c4436ad	0.011975926
61	0xbe5e0c6c	-0.21684426
62	0xbe463b2b	-0.19358508
63	0xbde6610d	-0.1124898
64	0x3e6bff8f	0.23046707
65	0xbe893f11	-0.26805928
66	0xbe13ff03	-0.14452748
67	0xbe321945	-0.17392452
68	0x3e2fc75f	0.17165898
69	0xbd767960	-0.060174346
70	0x3d04dec4	0.03243901
71	0xbe49b74e	-0.19698831
72	0xbd29306c	-0.041305944
73	0xbe02ce76	-0.12774071
74	0x3d2c8e56	0.04212793
75	0xbe0ab312	-0.13544872
76	0xbe6a2603	-0.22866063
77	0x3d4f8db4	0.050672248
78	0x3e0f9482	0.14021495
79	0xbe45fd02	-0.19334796
80	0x3e8a224f	0.269793
81	0xbe36e94b	-0.17862432
82	0xbd1a2efe	-0.03764247
83	0x3e2c07ef	0.16799901
84	0xbd38b2a0	-0.045092225
85	0x3ce17f7c	0.02752661
86	0x3d74b3b4	0.05974169
87	0x3e7b4aac	0.24540204
88	0xbe3a0565	-0.1816612
89	0x3e9c80ac	0.3056692
90	0x3cef576d	0.029216493
91	0x3d5ce865	0.053932566
92	0xbc90dc4d	-0.017683173
93	0xbe91a1bc	-0.28443706
94	0xbc5f5de2	-0.013633223
95	0x3e7619cb	0.24033277
96	0x3e3d2298	0.18470228
97	0x3e420116	0.18945727
98	0xbdc994fb	-0.09842869
99	0x3e7597b5	0.23983653
100	0xbe816a1b	-0.25276265
101	0xbdc81fbe	-0.09771679
102	0xbd9094f8	-0.070596635
103	0x3e7b125c	0.24518722
104	0x3d4de00e	0.050262503
105	0xbd79d276	-0.060991727
106	0x3e862442	0.26199538
107	0x3e3420d1	0.17590643
108	0x3e2e17df	0.17001294
109	0x3d0137cb	0.03154735
110	0xbe475de6	-0.19469413
111	0x3d31feb6	0.043455802
112	0xbe7eccb8	-0.24882782
113	0x3d31dfdf	0.04342639
114	0xbe7b14cf	-0.24519657
115	0xbe12937a	-0.1431407
116	0xbb8a6643	-0.0042236163
117	0xbd143d84	-0.03619148
118	0xbd525b39	-0.051356528
119	0x3e9424d8	0.2893436
120	0xbe94f0fb	-0.29090104
121	0xbe83c643	-0.257372
122	0x3d21c306	0.03949263
123	0xb957c455	-0.00020577137
124	0x3e03b2e6	0.12861213
125	0x3e8b39ff	0.27192685
126	0xbd308faa	-0.04310576
127	0xbe3f01c6	-0.1865302

layer3.att_dst f4 [1, 2, 64]
0	0x3da6556f	0.08121764
1	0x3dd0ecff	0.102014534
2	0x3dcee1c4	0.10101655
3	0x3e370692	0.178736
4	0xbe23b92c	-0.15988606
5	0xbe8ea922	-0.27863413
6	0x3e75fcf5	0.24022277
7	0xbe45391a	-0.19260064
8	0x3dae5f2f	0.085142486
9	0xbe4631ce	-0.19354936
10	0xbe1fda63	-0.15610652
11	0xbe47925c	-0.19489425
12	0x3d07ee1c	0.033186063
13	0xbe7327ab	-0.23745601
14	0xbe8cd762	-0.27508074
15	0x3e204787	0.15652286
16	0xbb8e6b88	-0.004346315
17	0xbe0840c8	-0.13305962
18	0x3d9a2445	0.07526449
19	0xbe08bc66	-0.13353118
20	0xbdee8e25	-0.11648206
21	0x3dfbb1ab	0.12289747
22	0x3c9ddd78	0.019270644
23	0xbe80f9fb	-0.2519072
24	0x3e42b2de	0.19013545
25	0x3e92383e	0.28558534
26	0xbd9b88a0	-0.075944185
27	0xbe2f336d	-0.17109461
28	0xbe0b096f	-0.13577817
29	0xbdb89a59	-0.090138145
30	0x3d0406a0	0.03223288
31	0x3d2ef937	0.04271814
32	0x3dda3454	0.10654512
33	0xbe742b8d	-0.23844738
34	0x3e2d634b	0.16932409
35	0x3e49a459	0.196916
36	0xbdd17313	-0.10227027
37	0xbd474003	-0.04864503
38	0x3e491aa8	0.19639075
39	0x3e777b43	0.24168114
40	0xbe85f158	-0.26160693
41	0x3e456f00	0.19280624
42	0xbddccadc	-0.1078088
43	0xbe16cd27	-0.14726697
44	0x3e8937c6	0.26800364
45	0x3e47f05f	0.19525288
46	0xbc919ea6	-0.017775845
47	0xbe86346a	-0.26211864
48	0x3d22184f	0.039573964
49	0x3e45c23b	0.19312374
50	0xbe391dca	-0.1807777
51	0x3c8073e3	0.01568026
52	0xbbed128e	-0.007234878
53	0xbe15cb09	-0.14628233
54	0xbe0f7fa1	-0.1401353
55	0xbe2b9e4f	-0.16759609
56	0xbe8b3d9a	-0.27195436
57	0xbcfd33b4	-0.030908443
58	0xbd4c2d88	-0.04984811
59	0xbe22c15c	-0.15894073
60	0x3d239c1c	0.0399438
61	0x3a2e106e	0.00066400215
62	0xbdb62514	-0.08893791
63	0xbdb90884	-0.09034827
64	0xbe267291	-0.16254641
65	0x3e40a14c	0.1881153
66	0x3d812408	0.063057005
67	0x3e4ce439	0.20008935
68	0x3de1949e	0.110146746
69	0x3e524a91	0.20536257
70	0x3e39a646	0.18129835
71	0x3e83f45a	0.25772363
72	0x3e552d50	0.20818067
73	0x3d244a0e	0.040109687
74	0x3e517465	0.20454557
75	0x3cf24f93	0.02957896
76	0x3d65cb34	0.056101993
77	0x3d13ee38	0.036115855
78	0x3e5829fe	0.21109769
79	0xbe861eb0	-0.26195288
80	0xbe77ea44	-0.24210459
81	0xbe01b472	-0.1266649
82	0x3c9ac486	0.018892538
83	0x3e838a6c	0.25691545
84	0xbe22f4f4	-0.15913755
85	0x3e457bdf	0.19285534
86	0xbde66299	-0.11249275
87	0x3dee03b3	0.11621799
88	0x3e3da6bc	0.18520635
89	0x3e1247b7	0.1428517
90	0xbdfa0ccc	-0.12209472
91	0xbe8ed488	-0.27896523
92	0xbd18c064	-0.037292853
93	0x3d59399e	0.053033464
94	0x3c3ca942	0.011514964
95	0xbe4124fd	-0.18861766
96	0x3ded207d	0.11578462
97	0xbe71432a	-0.23560777
98	0x3daeb0a5	0.08529786
99	0x3e5f088b	0.21780603
100	0x3e7c885e	0.24661395
101	0x3d2c42f8	0.042056054
102	0x3e7716df	0.24129818
103	0x3e045cc8	0.12926018
104	0x3cbfb0b1	0.023399683
105	0x3e11239f	0.14173745
106	0xbe77569e	-0.24154136
107	0x3dd1d859	0.10246343
108	0x3d1e13c2	0.03859306
109	0x3e7b85ac	0.2456271
110	0x3e8c7180	0.27430344
111	0xbd218518	-0.03943357
112	0x3cf5e0fc	0.030014507
113	0x3d916e82	0.07101156
114	0x3e4eae91	0.2018378
115	0x3d0f8446	0.035038255
116	0x3de8d6f1	0.11369122
117	0x3e5fcc82	0.21855357
118	0xbe80edcb	-0.25181422
119	0xbd2dc498	-0.042423815
120	0xbe5eaaf4	-0.21744901
121	0x3d87f313	0.066381596
122	0x3da5241b	0.08063527
123	0xbcec2098	-0.028824136
124	0xbe86e2c8	-0.26344895
125	0xbd8f4b2e	-0.06996761
126	0x3e5506a9	0.20803322
127	0x3e66505d	0.22491594

layer3.bias f4 [128]
0	0x3b9241e7	0.0044634226
1	0xbac29e8e	-0.0014848278
2	0xbc339331	-0.010960386
3	0x3be2675d	0.0069092945
4	0x3c6e6da1	0.014552505
5	0x3bf5fd7b	0.007507024
6	0xbadda225	-0.0016909285
7	0xba52bdee	-0.0008039166
8	0x3b702e6d	0.0036648766
9	0x3bb76cc3	0.005597682
10	0xbbdb0573	-0.006683999
11	0xb9a5a7a0	-0.00031596143
12	0x3b9f87fc	0.0048685055
13	0xb9931f3e	-0.00028061302
14	0x3bee89a2	0.0072795907
15	0x3af6ee13	0.0018839262
16	0x3bed39ba	0.0072395476
17	0x3bc1009b	0.0058899648
18	0xba3779e4	-0.0006999059
19	0x3b89fbef	0.004210941
20	0x3ba876e0	0.005141124
21	0x3b56383a	0.0032687322
22	0x3aea5886	0.0017879165
23	0x3b5e69c0	0.0033937544
24	0xbb0c31e3	-0.002139204
25	0x3c331491	0.010930196
26	0x3a7af74b	0.00095735927
27	0xbbaf37aa	-0.005347212
28	0x3b5ad67c	0.0033392003
29	0x3b4f5278	0.0031634849
30	0xbbeae839	-0.0071687964
31	0x3b84315b	0.004034204
32	0x3a72f61e	0.00092682417
33	0x3b93aed0	0.0045069233
34	0xba2d8e77	-0.0006620655
35	0x3a39bbeb	0.0007085192
36	0x3ba1e873	0.00494104
37	0xba165fe9	-0.00057363376
38	0xba9c55ba	-0.0011927404
39	0x3b56ea6d	0.0032793537
40	0x3bb23a2a	0.0054390626
41	0x3bc4013e	0.0059815934
42	0x38a77f53	7.9868965e-05
43	0xbba6e7f5	-0.0050935694
44	0x3bf848aa	0.0075770216
45	0xbbba1e46	-0.0056798784
46	0x3bb2b4ae	0.0054536676
47	0xbaf3702f	-0.0018572862
48	0xba75d130	-0.00093771797
49	0xba2b2a32	-0.000652942
50	0x3b902ce4	0.0043998826
51	0x3afc8942	0.001926698
52	0xba6cbae4	-0.00090305344
53	0xbac37c91	-0.0014914443
54	0x3ae380f8	0.0017357161
55	0xb7c5a51c	-2.3561115e-05
56	0xbbfc5c95	-0.0077014663
57	0x398dac45	0.00027021967
58	0x3b3192ee	0.0027095634
59	0x3b5d96d6	0.003381183
60	0x3b980a47	0.004639897
61	0x3b40cc5f	0.002941869
62	0x3b967ec0	0.0045927465
63	0x3b4a4604	0.0030864486
64	0xbb86ffda	-0.0041198554
65	0x3bba9ed0	0.0056952015
66	0x3b6f5688	0.0036520083
67	0x3bd04d87	0.006356898
68	0xbb30ebc2	-0.0026995991
69	0x3b412462	0.0029471149
70	0x3bf53e7c	0.0074842554
71	0xbb7b4ad7	-0.0038344169
72	0x3c4aa876	0.012369266
73	0x3c1a483c	0.009416636
74	0x3b53010c	0.003219667
75	0xbb869a39	-0.0041077402
76	0x3b9b2372	0.00473445
77	0x3bf3e5a2	0.007443146
78	0xba898706	-0.0010492511
79	0xbbc064e7	-0.0058714035
80	0xbbe83219	-0.00708605
81	0x3aeaf767	0.0017926515
82	0xbb5de4e3	-0.003385835
83	0xb9fac62b	-0.00047831362
84	0x3b14d087	0.00227073
85	0xb9a08138	-0.00030613854
86	0x3c132edc	0.00898334
87	0x3b8d0583	0.0043036356
88	0x3bb293e3	0.0054497584
89	0xbb4f5917	-0.0031638795
90	0x3ba52a2b	0.005040427
91	0xbb1d6a16	-0.002401953
92	0x3be3cab6	0.0069516553
93	0x3b4097d0	0.0029387362
94	0xbafd47d3	-0.0019323773
95	0x3bf0d50a	0.007349615
96	0xbaa5809e	-0.0012626832
97	0x3b904b66	0.0044035194
98	0xbac31142	-0.0014882463
99	0xba51524a	-0.00079849793
100	0x3c9c431d	0.01907497
101	0xba9a2067	-0.0011758924
102	0x3a9800d7	0.001159693
103	0x3b6e72f9	0.0036384447
104	0xbba1bc6d	-0.004935792
105	0xbb4fdc05	-0.0031716835
106	0x3c8c7529	0.01714571
107	0xbb90e8b3	-0.004422271
108	0x3bbfec77	0.005857046
109	0x3b3ab0b9	0.0028486683
110	0x3b980149	0.004638825
111	0xbbedd961	-0.0072585796
112	0xbbc23abb	-0.0059274114
113	0xba845efa	-0.0010099106
114	0x396f8d53	0.00022845464
115	0xbbc8dd5f	-0.006129905
116	0xbacba364	-0.0015536365
117	0xbbbf3b06	-0.0058358936
118	0x3b02c3b5	0.0019953076
119	0xbb6cdf4a	-0.0036143833
120	0xb9b2615b	-0.0003402334
121	0x3bb33b39	0.0054697064
122	0x3b9d358a	0.004797642
123	0x3bc5c75e	0.0060357293
124	0x3a4edc49	0.00078911014
125	0xbb79467b	-0.0038036394
126	0xbacc07df	-0.0015566311
127	0x3b93868e	0.004502124
