Data/gat_model.pth (torch, 231392 bytes, 18 tensors)

att_src f4 [1, 2, 64]
000000 b8 74 4e be a6 8b 03 be 71 ba 83 3d 7c d7 1c 3d
       -0.20161712 -0.1284624 0.06432045 0.03829144
000010 49 32 78 3e 1e 21 4d 3d d1 07 0e 3d c5 a5 21 be
       0.24237932 0.05008041 0.034675423 -0.15785892
000020 f9 6d 86 3e 0a e2 ee bb 2a 6a 44 3e 29 ec 7d be
       0.26255777 -0.0072901295 0.19181123 -0.24797119
000030 44 c3 27 3e 8b ad 86 3e f9 7b 3c 3e 01 05 7d 3e
       0.16383082 0.26304278 0.18406667 0.2470894
000040 9f c7 10 be 66 0b 7c be f0 f4 d3 3d ab db 0a 3e
       -0.1413865 -0.24613723 0.103494525 0.13560359
000050 00 86 35 be 52 bc ac bd 1d 36 4d 3c b3 c9 20 bd
       -0.17726898 -0.08434357 0.012525109 -0.039254855
000060 8a 05 1d 3e 0c f4 4a 3e ef 78 a4 3d 24 79 f9 bd
       0.15334144 0.19819659 0.08030879 -0.12181309
000070 08 68 46 be 1c 81 8e 3e 5e 7c 80 3d 55 d1 2d be
       -0.19375622 0.27832878 0.06273721 -0.16974385
000080 26 8c 78 be 7c 81 3b be 2b b0 8c 3e 50 d9 3c be
       -0.24272212 -0.18311113 0.27478155 -0.18442273
000090 f0 26 97 be 75 c6 5b be 31 aa 26 be c3 27 ac bb
       -0.29521894 -0.21462424 -0.1627586 -0.0052537634
0000a0 d5 88 64 be 2e 9f db 3d b7 c4 f9 bc cd 5f 09 be
       -0.22317822 0.107237205 -0.030489309 -0.13415451
0000b0 ea b5 40 be 40 b8 b2 bd d7 5c 8a 3e d7 66 8e 3c
       -0.18819395 -0.08726549 0.27023956 0.017383022
0000c0 e1 fe aa 3d 1b ac a1 be f3 a4 2d 3e 3e 4b 47 3d
       0.083493955 -0.3157662 0.16957454 0.04865574
0000d0 ee 82 03 bd a1 ce a1 3b 5e 63 03 be 37 23 77 be
       -0.032107286 0.004937962 -0.12830874 -0.24134527
0000e0 cb 2b 1c be 4a 87 01 3e ba 91 75 3e c0 45 66 be
       -0.1525108 0.12649265 0.23981372 -0.22487545
0000f0 10 94 0d 3e da b4 2c be d7 66 61 3e 30 be 2a 3d
       0.13826013 -0.16865864 0.22011887 0.041685283
000100 e8 b9 8c be ca 5b 85 be 8f b5 89 3d ca ad 28 3e
       -0.27485585 -0.26046592 0.06724083 0.16472545
000110 db 9e b3 3d ae 8b a4 3d e9 3a 32 bd 03 ba 1b be
       0.08770534 0.08034454 -0.043513212 -0.15207677
000120 f3 80 1a 3d 5b 36 6f be 6c 9c 0e 3e e0 0f c4 bd
       0.03772063 -0.23360579 0.13926858 -0.095733404
000130 6a b4 8d be 98 da 27 3d ec 76 db 3d 01 1b 67 be
       -0.27676708 0.04097995 0.10716042 -0.22568895
000140 0c 67 4c be 96 ca 40 bd d7 63 e9 bd 55 74 86 3e
       -0.19961184 -0.0470682 -0.11395996 0.2626063
000150 59 8a 34 3d 81 81 bb bd 9b 4c 6d be b0 87 6a be
       0.04407725 -0.0915556 -0.23173754 -0.22903323
000160 ed 16 de 3d eb c3 a2 bd 7d 86 32 3d e9 97 43 3d
       0.108442165 -0.07947525 0.04358529 0.047752295
000170 b6 5e 5e 3e 6c 55 81 bc bb 72 09 3e 1a b6 91 be
       0.21715817 -0.015787803 0.13422672 -0.28459245
000180 64 82 56 3e dd 71 7d be d5 68 ad bd ca e3 8c be
       0.20948178 -0.24750467 -0.08467261 -0.2751754
000190 d6 c5 14 3e 01 bf 9f bd 3a 47 98 be db 99 26 be
       0.14528593 -0.07800103 -0.29741842 -0.16269629
0001a0 bb ec 27 3e b0 ac 4c 3e 1b a4 4e 3e e7 64 94 be
       0.163989 0.1998775 0.20179789 -0.28983232
0001b0 10 db 01 be 65 03 56 3d 28 cf 62 bc 1e 9c 19 be
       -0.12681222 0.05224933 -0.013843335 -0.1500096
0001c0 64 5e 93 3e ea 6d 39 be 5b 1b 5c 3e 2a c4 41 3e
       0.28782952 -0.18108335 0.2149481 0.18922487
0001d0 2d ff 72 be 89 c4 4c be bb b3 45 be 3e 84 5b 3e
       -0.23730154 -0.19996847 -0.19306843 0.21437165
0001e0 f1 3a 8a be fd d4 bb 3a 6e 87 a9 bd e9 b1 98 bd
       -0.26998094 0.0014330443 -0.08277784 -0.07455809
0001f0 34 35 54 be 2d c4 86 be 05 3f 8a be 6b ce dc bc
       -0.2072342 -0.26321545 -0.27001205 -0.026953897

att_dst f4 [1, 2, 64]
000000 8a a0 24 3b f1 27 8b 3d 7b 6f de 3d ab 33 06 be
       0.0025120103 0.067947276 0.10861107 -0.13105647
000010 e0 3c 2e 3e b4 c0 2c 3e e4 78 74 be 92 13 89 3e
       0.1701541 0.16870385 -0.23874241 0.26772743
000020 15 8d 05 bd 00 9e a9 bc 05 52 95 be 84 a4 12 3e
       -0.03260525 -0.020705223 -0.29164138 0.1432057
000030 f9 e0 e8 3d 02 fc 87 3d 09 95 fe 3d 05 b2 8b be
       0.11371035 0.066398636 0.1243077 -0.27284256
000040 61 6f 90 3e 9e 29 54 3e 71 72 a8 bd 82 d1 0c 3e
       0.28209975 0.20719 -0.08224953 0.13751796
000050 ec 42 e8 bd 61 56 c5 bd d9 33 9b bc 58 81 4a 3e
       -0.11340889 -0.09635616 -0.018945621 0.19775903
000060 13 5b 1c 3e df 81 c9 bd a9 5f 6b be c9 82 5d bb
       0.15269117 -0.09839224 -0.2298571 -0.0033799878
000070 f4 79 06 be 22 35 87 bc c6 da 0b 3e f5 f7 4a 3e
       -0.13132459 -0.016504828 0.13657674 0.1982115
000080 b1 ce c7 bb 86 0b fc 3d cf 35 5b 3d 57 ed 0a be
       -0.0060976376 0.123068854 0.053518113 -0.135671
000090 d7 59 4e 3e fe 8b 59 be 92 51 41 bc 38 18 01 be
       0.20151459 -0.21244809 -0.011799233 -0.12606895
0000a0 03 6b 09 3d 48 27 77 3e 87 8c ce 3d 83 7b 95 bc
       0.03354932 0.24136078 0.10085397 -0.018247372
0000b0 da 32 8e be 7d 20 56 be 6b c6 9b bd 79 26 0d be
       -0.27773172 -0.20910831 -0.076062046 -0.13784207
0000c0 a7 a7 62 3d 31 92 95 be 3d 04 87 3e 3c a8 c3 bd
       0.055335667 -0.29213098 0.2637042 -0.095535725
0000d0 0a 1b 43 3e 25 84 70 3e bc 26 76 3e 52 5a 89 bd
       0.19053283 0.23487909 0.24038213 -0.0670668
0000e0 89 55 98 3c 99 fd 19 3e 5e df 68 be dc 08 ca bc
       0.018595474 0.15038146 -0.22741458 -0.024662428
0000f0 c6 9d 08 3e eb bd da bb 79 1b 5c be ff f2 d8 3c
       0.13341436 -0.006675472 -0.21494855 0.026483057
000100 ce 5f 35 bd 1c a1 41 3e 99 1f 55 be a3 ed f6 3c
       -0.04428082 0.18909115 -0.20812835 0.03014261
000110 67 95 31 bd af 57 02 bb e5 a8 87 3e b4 72 eb 3b
       -0.04335537 -0.001988869 0.26496044 0.0071853045
000120 3b e5 0d bd bb 76 92 be e5 08 22 be 41 2e 73 be
       -0.03464244 -0.2860621 -0.15823705 -0.23748113
000130 b9 f7 0f 3d 36 07 a9 bd 67 6c b2 3d 46 d5 80 3e
       0.035148356 -0.082533285 0.08712082 0.25162715
000140 38 30 7a 3d 95 df 58 be 6d d6 32 be 49 7b 08 be
       0.06108114 -0.2117904 -0.1746461 -0.1332828
000150 bf c3 28 be 8d 35 77 3d 9b eb 93 be 18 fd 5f be
       -0.16480921 0.060353804 -0.2889069 -0.21873891
000160 75 06 4d bd 9a c9 56 be 22 a3 3f 3e 0e 41 cd 3d
       -0.050054986 -0.20975342 0.18714574 0.10022174
000170 de 57 6a 3e 06 e3 05 3e e6 24 9b bd 63 70 43 bd
       0.22885081 0.13074884 -0.07575397 -0.047714602
000180 0a f1 16 3e 94 e2 8b be 1c b8 9a 3d a6 58 82 be
       0.14740387 -0.27321303 0.07554647 -0.25458258
000190 8b 3a 09 3e 50 b6 b9 bd 4c b6 bf 3d a1 c2 e3 3d
       0.13401239 -0.090679765 0.09360942 0.11121107
0001a0 3b f7 fd 3b ba d1 b9 3c 46 e5 c8 bd 82 16 0a 3d
       0.0077504194 0.022683013 -0.098093554 0.03371287
0001b0 24 ed 37 3e b1 25 65 3e 96 27 a1 bd 59 65 97 3d
       0.17961556 0.2237766 -0.078688785 0.073923774
0001c0 15 b8 86 3d 9b 99 e1 3d 9f 5b bd 3d 63 de dc 3d
       0.065780796 0.11015626 0.09245991 0.107846044
0001d0 b0 7c 57 be 19 ea 56 bd 0b 06 0d be e2 bb 7e 3e
       -0.21043658 -0.052469347 -0.13771836 0.24876359
0001e0 32 9a f3 bd 98 52 04 3e f3 06 b0 3d 03 2c d9 3d
       -0.11894645 0.12922132 0.085950755 0.10604098
0001f0 8f f9 99 3d 4f cd ff bc 9d ce d0 bd b2 c0 93 3e
       0.07518303 -0.031225828 -0.10195658 0.28857952

bias f4 [128]
000000 ed 7f c1 3b 6b d3 4e 3c be 63 35 3b 3a 94 bf 3b
       0.0059051425 0.012623648 0.002767786 0.0058465274
000010 ff f5 7a b9 60 aa 24 3c 4b 64 a2 3c 22 f0 9a 3b
       -0.00023933499 0.010050386 0.019823214 0.004728333
000020 b4 71 b8 3b 51 c8 16 3c 89 0e 86 bb c6 6e a5 3a
       0.005628789 0.009203033 -0.004091088 0.0012621514
000030 80 ff ad 3a 27 38 16 3c 89 b0 07 3c 2e 2d fa bb
       0.0013274997 0.009168661 0.008281835 -0.0076347804
000040 f7 ce 85 3a 1c 69 1a 3b 7d 12 92 39 92 bb 59 bc
       0.0010208775 0.0023561185 0.00027861065 -0.013289349
000050 24 fc 46 bb 7a f5 91 3b e6 5d 04 3c fd ff 0e 3c
       -0.003036269 0.004454312 0.008079028 0.008728025
000060 ac 47 c2 bb e9 f7 06 3c 29 07 72 bb 1f db 9b bb
       -0.005928954 0.008237817 -0.0036930537 -0.004756346
000070 3f 27 f1 bb 29 ab 27 3c 78 91 42 3c d8 69 a1 3a
       -0.007359415 0.010233679 0.011875503 0.0012314869
000080 b5 e0 d1 3b 1b 71 59 ba b8 a8 e1 3c 3e ca 04 3c
       0.006404961 -0.0008294747 0.027546272 0.008104859
000090 b6 3d e3 3b ae ce 82 3c 1f f5 09 ba 0b a2 27 3c
       0.0069348468 0.015967693 -0.0005262661 0.010231505
0000a0 93 69 ff 3b a8 5a f0 3c 2f e1 2a 3c 9b cc e9 3b
       0.007794568 0.029340103 0.0104296645 0.0071349866
0000b0 0e 2e 04 bc 75 91 b6 3b 63 97 bf 3b e3 ee c2 3a
       -0.008067621 0.005571539 0.005846904 0.0014872219
0000c0 3c 1a cb 3b a0 01 94 3c 73 6a b7 3a bd ed e3 ba
       0.0061981957 0.018067181 0.0013993516 -0.0017389577
0000d0 79 ba e4 3b 0e 9b 8b 3b ea b3 ac ba 7a 49 8a 3c
       0.006980237 0.0042604273 -0.0013176177 0.01688074
0000e0 34 6b fd ba 72 32 0a 3c b3 aa 30 3c 5c 3a 90 bb
       -0.0019334317 0.008434879 0.010782885 -0.004401488
0000f0 5d ba d7 3b e2 13 2a ba 3d 2c 10 3c 88 fd 90 3c
       0.0065834955 -0.0006487948 0.00879961 0.017699018
000100 15 f1 9c 3b 75 98 79 3b b6 0b 03 3c 49 43 54 3c
       0.0047894814 0.0038085256 0.007998398 0.012955495
000110 88 24 9a bb e8 32 7c bb de 02 82 3c dc 8c fa 3b
       -0.004704062 -0.003848249 0.015870508 0.0076461863
000120 bf f4 0b 3b 07 1b 23 3c 88 45 9c 3b c2 4a 38 3b
       0.0021355597 0.009955174 0.004769031 0.002812073
000130 8c 20 6e 3b 6a a4 6a 3a 0a 50 b4 3b 3b 95 74 bb
       0.0036335317 0.0008950891 0.0055027055 -0.0037320394
000140 cf ce b3 bb fa 46 9d 3a 42 c1 24 3c ab 97 a4 3b
       -0.0054873 0.0011999302 0.010055842 0.005022963
000150 9c 78 61 3c d0 77 ac 3c ea 35 41 bc 7b 7f 19 3a
       0.013761666 0.021053225 -0.011792639 0.0005855483
000160 f6 69 ae bb 36 ec 02 3c d1 fb fa 3c e0 cc 5b 3a
       -0.00532269 0.007990887 0.030637654 0.0008384716
000170 71 13 2f 3c 7e 59 1f 3c 5f 9f 82 3c ff 80 76 3a
       0.010685788 0.009725926 0.015945135 0.0009403377
000180 64 5c ab bb f7 cc ea 3b fe 33 6b 3c 61 cd 36 3c
       -0.0052295197 0.007165547 0.014355658 0.011157365
000190 1e be 15 bb 03 b1 82 3b 53 51 1b bb 66 9d 0b b9
       -0.0022848914 0.0039883866 -0.0023699596 -0.00013314708
0001a0 1a 8b d9 3b 8d c7 34 3b 27 b1 e9 3b 9f 42 33 3c
       0.0066388967 0.0027584762 0.007131714 0.010941177
0001b0 ee 10 9b bb 40 93 d7 39 28 6e 19 3c 06 8d 81 ba
       -0.004732243 0.00041117705 0.009364642 -0.0009883947
0001c0 fe 08 27 3c b0 f4 8b 3b e9 a4 1b 3c 15 ac b9 3c
       0.010195015 0.0042711124 0.009499767 0.022665063
0001d0 29 a7 ba 3a c3 a6 3b bc 96 77 34 3c e4 9c 66 3b
       0.0014240491 -0.011453333 0.01101484 0.003518873
0001e0 23 4f 33 bc 60 da 44 3c 38 e6 43 b9 eb 72 0d bb
       -0.010944161 0.012014955 -0.00018682412 -0.002158339
0001f0 80 f6 a7 3a 96 5a a2 bb a4 21 30 3c 5e e0 82 bb
       0.0012814552 -0.0049546463 0.010750208 -0.003994032

weight f4 [128, 91]
000000 7e 3f ac 3d 96 c8 72 bd 17 50 fd bd 89 91 7e bb
       0.08410548 -0.059273325 -0.123687916 -0.003884407
000010 a2 b3 61 bd dc 95 1f be 90 fe 5b 3d f5 08 d8 3b
       -0.05510295 -0.1558451 0.053709567 0.0065928646
000020 ab 12 9d 3d 41 cb 2f 3d 7d c5 dd bd 23 97 2e be
       0.07669576 0.042918447 -0.108286835 -0.17049842
000030 a9 91 d5 3d 9a 23 f8 bd 44 2f 0e 3e 73 55 32 3d
       0.10428173 -0.121161655 0.13885218 0.043538522
000040 7e 6c af 3d 9c aa 26 3e 05 df 08 3d cf f3 b2 bd
       0.08565615 0.1627602 0.033415813 -0.08737909
000050 6c 22 00 be a7 e7 46 3c 0a fc 27 bd 13 fe 07 be
       -0.12513131 0.012140191 -0.041011848 -0.13280515
000060 ed a9 a3 bc 46 de 1f be 3c 38 1f 3e 19 c8 d0 3d
       -0.019978488 -0.15612134 0.15548795 0.101944156
000070 74 e6 09 be a1 7a 99 3c 5a 47 f4 3c df 8a 88 bd
       -0.13466817 0.018735232 0.02981918 -0.066671126
000080 1e 78 d8 bb a4 5e 2e 3c ce df 26 3e 29 e8 ba 3d
       -0.006606116 0.010642681 0.16296312 0.09126312
000090 5c ef 09 3e ae 39 d4 3d 76 81 21 3e 08 0c b5 3d
       0.13470215 0.10362564 0.15772042 0.088401854
0000a0 99 28 24 be ad 77 89 3d a2 13 20 be d5 2c 2a bc
       -0.16031112 0.067122795 -0.1563249 -0.010386665
0000b0 7e 61 a6 bd 44 7b 21 3e 13 6f 55 3d bc 35 fb 3d
       -0.08124064 0.15769678 0.05210788 0.122661084
0000c0 c4 d8 1c bd 11 e0 9e 3b b9 3c ff 3d 04 3a 06 3e
       -0.03829266 0.004848488 0.12462754 0.13108069
0000d0 ea 50 1c 3e 60 93 0f be bb 5f e9 bd 79 d1 9d bd
       0.15265241 -0.14021063 -0.11395212 -0.07705969
0000e0 7d b1 07 bd 5f 49 2e 3e e7 49 17 3e a3 50 9e 3c
       -0.03312825 0.17020176 0.14774285 0.01932556
0000f0 97 6d b1 bd 56 7e 10 be ab 00 20 3e eb be d7 3d
       -0.08663481 -0.14110693 0.15625255 0.105344616
000100 5b ab 22 be 83 16 c5 bd bc 32 5c 3d 03 96 27 be
       -0.1588568 -0.096234344 0.05375932 -0.16365819
000110 88 54 bf bd 22 c3 d1 3d ee a3 16 be c5 6f b0 bd
       -0.09342295 0.10242297 -0.14710972 -0.08615068
000120 20 0a 71 bd 60 ff 14 3e 02 51 f0 bc 0e fc 0f 3e
       -0.058847547 0.14550543 -0.029335503 0.14060995
000130 84 f2 f9 3d 85 b2 c7 bb bb ce 20 be e0 9e 18 be
       0.12204459 -0.0060942792 -0.15703861 -0.14904356
000140 c8 33 76 bd 93 6b d7 bc 25 a0 09 3e 5a 00 f9 bb
       -0.060107976 -0.026296413 0.13439997 -0.007598919
000150 ca 23 f4 3d dc 45 af 3d 0d f1 87 3d bd bc 98 3d
       0.11920889 0.085582465 0.06637774 0.07457874
000160 8e 94 0b be 27 46 09 be bd a6 fa 3b 4f b5 9a bd
       -0.13630888 -0.13405667 0.0076492713 -0.07554113
000170 66 2a 04 3e a1 b5 d5 3c 75 8b a1 3c 40 78 96 3d
       0.12906799 0.026087584 0.019719819 0.073471546
000180 2c f6 ee 3d 4d a6 3a 3e b9 c5 a1 3d 22 7a ec 3d
       0.11668047 0.18227501 0.07899041 0.115467325
000190 68 9d e9 3d 13 2d 6e 3d 78 76 10 be 40 3d 29 be
       0.11406976 0.058148455 -0.14107692 -0.16527271
0001a0 00 20 96 bd 74 33 a1 3c 8d 90 31 bc c2 46 de bd
       -0.07330322 0.019677855 -0.010837686 -0.1085334
0001b0 e9 6f a9 bd d1 42 1c 3d ca 0c 17 3e ea 4f 4c 3d
       -0.08273298 0.03814966 0.14750972 0.0498809
0001c0 a9 17 e0 3d 09 72 be 3d 1e 56 61 bd 87 c6 c5 bc
       0.10942013 0.09299094 -0.05501377 -0.024142517
0001d0 f6 37 d2 bd 73 89 08 be e3 4b a8 3c 85 a7 05 3e
       -0.1026458 -0.13333683 0.020543998 0.13052185
0001e0 50 8d cf bd d3 0a 8f 3d e4 2d 69 bd fb 93 34 bd
       -0.10134375 0.069844864 -0.05692853 -0.044086438
0001f0 54 50 d3 bd 83 63 c1 bc 9e c5 c6 3c 98 b5 94 bb
       -0.10318056 -0.023607021 0.024264153 -0.004538249
000200 5d 65 1f bb d7 a9 91 bd da 20 01 3e 2b 31 db bd
       -0.0024321892 -0.071124725 0.12610188 -0.107027374
000210 31 15 6f bd a0 44 c0 3d 20 3a e0 3d 5e bc 4d bd
       -0.05836982 0.09388089 0.109485865 -0.05022847
000220 32 21 9b 3c fc 66 cd bd 3a 4c 2b 3e d0 60 0c 3e
       0.018936727 -0.10029408 0.16728297 0.13708806
000230 7d 8e 57 3d 65 4c a4 3d 9a cf fe 3d 95 a3 27 bd
       0.05262612 0.080223836 0.124419406 -0.04092749
000240 c7 20 ab 3d a4 2d ea bd 2a 24 76 3d ed fc 88 bc
       0.08355861 -0.114344865 0.060093082 -0.016722167
000250 a8 72 d7 3c cb 0d 10 3e 11 62 9c bd 3b 63 12 3e
       0.02629979 0.14067762 -0.07635892 0.14295666
000260 10 0c f9 3d 8d d5 90 3c 80 84 c9 3d 56 7e d8 3d
       0.12160504 0.017679954 0.098397255 0.10570972
000270 1d f2 08 bd af 3d c4 bd ad 07 10 bc 9e 18 ab bc
       -0.033434022 -0.09582078 -0.008790893 -0.020885762
000280 a7 b4 b1 bd 23 de b8 3d 8e 62 e9 bd 00 51 ec bc
       -0.08677035 0.09026744 -0.11395751 -0.028847218
000290 41 82 36 be 57 b0 24 be e8 cf 30 be 46 c0 bb bd
       -0.17823125 -0.16082893 -0.1726681 -0.091675326
0002a0 a8 d7 95 3d 97 bb e7 bd 97 2a c1 3d 68 65 a2 bd
       0.07316524 -0.11315077 0.094319515 -0.07929498
0002b0 e6 9a 16 3e 91 81 40 bc 23 03 d9 3c 85 7f 96 bd
       0.14707527 -0.011749641 0.026490754 -0.07348541
0002c0 07 42 ca bd fa a3 cd 3d 3f e6 df bd 57 c4 1b 3e
       -0.09875875 0.10041042 -0.10932588 0.15211616
0002d0 a7 74 87 3d f4 4d 96 bc 80 2f 83 bd d7 85 a5 bd
       0.066140465 -0.018347718 -0.06405544 -0.080821685
0002e0 06 d2 8e 3c 07 7d f9 3b 2c 67 b0 3d b2 2a 84 bd
       0.017434131 0.0076137814 0.086134285 -0.06453456
0002f0 39 ad 92 3d 7d c1 81 bd 5d 6a 09 3d a9 c3 83 bd
       0.07161946 -0.06335733 0.0335487 -0.064338036
000300 70 35 97 3d fe 3c 8f b9 e4 8d 23 bd 94 dc 23 bc
       0.07383239 -0.00027320528 -0.03993024 -0.01000132
000310 4d b2 f8 bd 24 d5 29 3e 2d ce 3b be 79 22 ad 3c
       -0.12143383 0.16585213 -0.18340369 0.021134602
000320 13 5b 1a be f0 a6 10 3e 4b 8a ab bd 04 5d df 3d
       -0.15073805 0.14126182 -0.08375987 0.10906413
000330 ed 10 c7 3d a6 57 c7 bd 55 a8 60 bd 83 31 36 3d
       0.09720025 -0.097335145 -0.054848034 0.04448081
000340 9f c7 20 3e 8f 01 2b 3d b6 c3 de 3c 2b 53 d7 3d
       0.1570115 0.041749533 0.027192932 0.1051391
000350 b9 1e 2d 3e 0b a9 65 bd 13 d5 3d 3c 7d 5a eb 3c
       0.16906251 -0.056069415 0.011586445 0.028729672
000360 e2 06 b0 bd 60 17 5f 3c dd 80 b6 bc a5 0c ad bd
       -0.08595063 0.013616413 -0.022278244 -0.084496774
000370 42 75 2a be 97 ab 68 3d 92 fa 0f bd 08 dc fd 3d
       -0.16646293 0.056804266 -0.03515107 0.12395483
000380 28 51 c7 3d 5c a3 93 bd c1 fa 11 3e 9b e3 f6 3d
       0.09732276 -0.07208893 0.14255811 0.12055131
000390 24 68 29 3e 3c 05 22 be f9 01 f1 bd d3 44 ac bc
       0.16543633 -0.1582231 -0.117679544 -0.021028912
0003a0 64 bd 45 3d 00 83 9b 3d 4a 1d d4 3d a8 80 85 3d
       0.04827632 0.07593346 0.10357149 0.0651868
0003b0 b6 e0 e5 bb 87 49 88 bd e6 52 1e 3d ce 14 46 bd
       -0.007015313 -0.06654649 0.038653277 -0.048359685
0003c0 63 93 d3 3c a4 dc 8d 3d 8c df c8 bc 84 89 1e 3d
       0.025827115 0.069268495 -0.024520658 0.038705364
0003d0 ac c4 d9 3c fd 64 9c 3d fb 85 8b bd e4 b9 00 3d
       0.026583038 0.076364495 -0.06812664 0.03142728
0003e0 ca b5 21 bd c5 12 d7 bd 08 d8 89 bd 82 44 cf 3d
       -0.03948001 -0.10501627 -0.06730658 0.10120489
0003f0 1f 53 1d be 27 a5 08 be bc 96 2c bd 20 1d 27 bd
       -0.1536374 -0.1334425 -0.04213594 -0.04079926

att_src f4 [1, 2, 64]
000000 13 e6 50 3e 70 97 97 3d b5 b1 a6 bb 40 f5 d0 3d
       0.20400266 0.07401931 -0.0050871023 0.10203028
000010 01 5a b7 bd 41 b6 0c 3e db a8 2b 3e 52 70 cf 3d
       -0.08952714 0.137414 0.16763632 0.10128845
000020 2b 76 0f bd a1 27 a9 3c 4d 3b 42 3e 91 96 af bd
       -0.035024803 0.02064878 0.18967934 -0.0857364
000030 cb 13 7f 3e 91 dc 63 be 58 1b c4 bc 97 ec 49 be
       0.24909894 -0.22252108 -0.02393882 -0.19719158
000040 57 7a a7 bd 15 b0 cc 3d 21 48 56 3e 23 c9 3a 3e
       -0.08177631 0.099945225 0.20925952 0.1824079
000050 9b e3 56 3e 0f 4e 1b 3e 1a 73 ab bc bf eb 90 be
       0.20985262 0.15166496 -0.020928908 -0.2830486
000060 e6 da 88 be b2 72 39 be 76 42 88 bd 14 e2 bf 3b
       -0.26729506 -0.18110159 -0.066533014 0.005855808
000070 52 56 4e be e2 54 94 be b3 59 37 bd 06 58 88 3d
       -0.20150116 -0.2897101 -0.04476328 0.06657414
000080 b3 5a e4 bb a4 88 c4 bd 58 5c 3e 3e 70 5c 0c be
       -0.00696882 -0.09596375 0.18589914 -0.13707137
000090 db 9f 93 be 65 71 8f be e8 31 65 3e 41 a3 93 3d
       -0.28832898 -0.280162 0.22382319 0.072088726
0000a0 0c 87 92 bc 37 d3 90 3e a4 f9 0a be 7e 45 02 be
       -0.017886661 0.28286144 -0.13571793 -0.12721822
0000b0 c3 cd 4f be bf 0d 3e be a8 9c 00 3e 52 31 f4 bb
       -0.20293336 -0.18559931 0.1255976 -0.0074521685
0000c0 89 04 fe bd 7b a3 2f 3e a9 78 e8 bb 8d 44 e0 3d
       -0.12403209 0.17152207 -0.007094462 0.10950575
0000d0 ef e4 3e 3e 93 da 0c ba 60 4b 93 3d ae d7 27 be
       0.18642019 -0.0005373146 0.07192111 -0.16390869
0000e0 25 17 23 3d 17 d7 4b 3e 2e 9f f5 3c bc 8d 0f 3d
       0.039816994 0.19906269 0.02998313 0.035047278
0000f0 22 21 bd 3d da 42 51 be 51 3c f9 bd d1 f2 32 3e
       0.09234835 -0.20435658 -0.121697076 0.1747544
000100 1c 3f 96 3e 4a 00 80 be 5c 31 b6 3d 86 39 4c 3c
       0.29345024 -0.2500022 0.08896133 0.0124648865
000110 75 a9 8e 3e 75 a4 95 3e bb 0f f6 3d 0c 82 2e be
       0.2786366 0.29227033 0.12014719 -0.17041796
000120 d2 44 26 be 48 68 6a 3d 71 44 77 3e 15 77 2c bd
       -0.1623719 0.057228357 0.24147202 -0.042105753
000130 c2 bb 68 3e fc 56 93 3e be 6e 38 be 02 55 54 be
       0.22727874 0.287773 -0.18010995 -0.20735553
000140 ef 0c 2e 3e eb a1 2d 3e 55 6c 48 be 48 47 27 bd
       0.16997121 0.16956298 -0.19572575 -0.040839463
000150 28 00 26 3e 92 fa e5 bd f6 26 47 be 59 e6 a4 3d
       0.16210997 -0.11229433 -0.19448456 0.08051748
000160 05 2a 5c bd c9 eb 5e be cf 75 80 be 7d 09 61 be
       -0.05375101 -0.21769632 -0.2508988 -0.21976276
000170 12 95 9e be 63 a7 18 be fe af 0f 3e c3 5f 8f 3e
       -0.30973107 -0.14907603 0.1403198 0.28002748
000180 3e 38 c0 3d f1 43 d9 bd 72 e4 aa bd 8c df 2f be
       0.09385727 -0.10608662 -0.08344354 -0.1717512
000190 47 e6 52 3e 4d 98 65 bc a2 de 6e 3e 28 c1 97 bd
       0.20595656 -0.014013362 0.23327115 -0.074098885
0001a0 b2 63 0f bd 4c 7a cb bc a6 d6 c6 bc 84 c9 c8 bc
       -0.035007186 -0.02483859 -0.024272274 -0.024510153
0001b0 e9 c6 75 3d d0 3f b8 3d 3a de 94 3e e4 b5 85 be
       0.06000415 0.08996546 0.29075795 -0.26115334
0001c0 b1 f6 1a 3e ac c9 2b 3e 33 6d 8a 3e 63 91 5c be
       0.15133168 0.1677615 0.27036437 -0.21539836
0001d0 60 76 8c be 1a 24 6f be e3 30 76 be 75 2d c3 3d
       -0.27434063 -0.23353615 -0.24042086 0.095301546
0001e0 c5 95 7f be 4f 53 10 bd 9b be 61 3e 1d 98 50 be
       -0.24959476 -0.0352357 0.22045366 -0.20370527
0001f0 0d 19 7a be 40 88 de bd 5e 15 89 bc 2e 55 05 be
       -0.24423619 -0.108658314 -0.016733821 -0.13020775

att_dst f4 [1, 2, 64]
000000 c3 94 60 3c 8b 92 ff 3d 6a cc 1b 3e d5 04 b2 3d
       0.013707343 0.12479123 0.15214697 0.08692328
000010 51 84 d2 3d bb 02 cf bb f2 50 6d bc cf 9f 37 be
       0.102791436 -0.006317464 -0.014484631 -0.17932056
000020 76 47 de 3d 63 4b 12 be a0 11 56 be 8a 44 20 3e
       0.10853474 -0.1428657 -0.20905161 0.15651146
000030 31 b4 d7 3d 7f 01 19 be e3 af 9d bd 3f 85 cd 3d
       0.10532416 -0.14941977 -0.07699563 0.1003518
000040 ad 57 88 be 97 fc f0 3d 8f f3 11 3d d4 d7 03 be
       -0.2662939 0.11766928 0.035632666 -0.128753
000050 bb 58 30 be b0 54 7d be 88 ec 86 be 23 81 b3 bd
       -0.17221348 -0.24739337 -0.26352334 -0.08764865
000060 6d 12 23 3d a6 d0 95 bc 56 1f 52 3e d7 04 76 be
       0.039812494 -0.018287968 0.20519766 -0.24025284
000070 34 cd 6f 3e b2 e2 33 3e e8 12 08 be e2 05 27 3e
       0.23418123 0.17566946 -0.13288462 0.16310838
000080 47 d7 ea 3a dd c2 e6 3d ba 46 92 3e fc 89 92 3e
       0.0017916941 0.11267636 0.28569585 0.286209
000090 48 fc 82 3e b9 cc 94 be 6f 72 69 3e f7 8b 82 3d
       0.255831 -0.2906244 0.22797559 0.063743524
0000a0 74 ec 1f be 97 cc 25 3e 8e 2e da bd 9c 24 15 be
       -0.15617543 0.16191326 -0.10653411 -0.14564747
0000b0 ca a2 66 3d 7a 83 94 3e 2c 1f 02 be d3 ec db bd
       0.05630759 0.2900656 -0.12707204 -0.1073853
0000c0 1e c1 73 be 3f bc 63 be 53 02 be 3b 51 ee 92 3e
       -0.23804137 -0.22239779 0.005798617 0.28697446
0000d0 5b aa 86 3e c0 82 34 be be e3 14 be a5 39 ac 3d
       0.26301846 -0.17628002 -0.14540002 0.08409432
0000e0 d4 7e 70 3e 48 9a 57 be 59 85 3f be db e7 2b bc
       0.23485881 -0.21054947 -0.18703212 -0.01049229
0000f0 17 ab 92 3e 37 09 6a be 35 4c de 3d b6 a8 2a be
       0.28646156 -0.22855078 0.10854379 -0.1666592
000100 2f 1a 35 3e b1 a6 cb bd 8e 03 6e 3e 9e 38 f0 3d
       0.1768577 -0.09943903 0.23243544 0.11729549
000110 38 50 c1 bb 04 b7 ef 3c 7f 55 a6 3d 77 3f 24 be
       -0.0058994554 0.029262073 0.08121776 -0.16039835
000120 37 c1 a2 3d e1 ce 6c 3e a4 73 8e be 37 75 f5 3d
       0.07947009 0.23125793 -0.27822602 0.119852476
000130 31 6d 24 3e dd 31 83 3e e3 64 5f 3e 97 8e 10 3c
       0.16057278 0.2562398 0.21815829 0.008823059
000140 8d 7d 21 3e f3 f7 8a be c5 73 13 bb 03 97 08 3e
       0.1577055 -0.27142295 -0.0022499424 0.13338856
000150 94 82 c0 bc 08 2d 1c be 75 7c 02 3d 23 2c de 3d
       -0.023499765 -0.15251553 0.031856973 0.10848262
000160 b5 8a f3 bd da 23 80 3e 6d f8 3a be 48 69 72 3e
       -0.11891691 0.25027353 -0.1825883 0.23672974
000170 09 bb 0e be 13 7e 26 be 0d 8c 93 be b3 6d 6f bd
       -0.13938536 -0.16259031 -0.28817788 -0.058454227
000180 24 b9 14 bd 42 aa 24 3e ac ec 89 3e fb 34 41 3e
       -0.036309376 0.16080573 0.2693838 0.18867867
000190 d4 6b 3e 3e a4 03 36 3e f8 f0 49 be 73 7e 63 3e
       0.1859582 0.17774826 -0.19720829 0.22216205
0001a0 8b 6b 1d 3e ec 73 91 3c 3e 7b 1e bd 43 ae 8e 3e
       0.15373056 0.017755471 -0.03869175 0.27867326
0001b0 31 9d 52 be 52 4d 49 3e c0 16 52 be 53 1a dd 3d
       -0.20567776 0.19658402 -0.20516491 0.107960366
0001c0 7b 76 ec bd 7b 26 86 be c1 cb 54 3d 6e a2 45 3e
       -0.11546036 -0.26201233 0.051952127 0.19300243
0001d0 e0 67 09 bd ab 1c e9 bd 08 ed 92 3e b1 6b 7b be
       -0.03354633 -0.11382421 0.28696465 -0.245528
0001e0 26 d2 2e bd cf 72 ee bd 5c 70 57 be a0 f2 96 be
       -0.042680882 -0.11642992 -0.21038955 -0.29481983
0001f0 3a ef a1 bd 6d 92 78 be 31 03 20 be d2 e0 93 3d
       -0.07906957 -0.24274607 -0.15626217 0.072206154

bias f4 [128]
000000 33 b7 19 bc 28 84 50 3b 1a 75 fc bb 40 b7 44 3c
       -0.009382057 0.0031817053 -0.0077043893 0.012006581
000010 82 1d 86 bb 43 7a b1 3b f9 03 40 bc 57 a4 69 bb
       -0.004092873 0.005416186 -0.011719697 -0.0035650933
000020 ca 7f 36 bb 46 f9 58 3c ee b7 4d bc 52 c5 37 3c
       -0.0027847164 0.013243025 -0.012556059 0.011216478
000030 4c 2b f2 3a 43 35 d0 3b 89 4e bf 3b 73 cf c5 3b
       0.0018476038 0.0063540055 0.0058382195 0.0060366928
000040 ee 9f 95 3b f0 9e 1b 3c aa 04 fe bb 3d c4 9f 37
       0.0045661842 0.009498343 -0.007752021 1.9045658e-05
000050 d7 85 c6 3b d8 81 28 3b ba d1 82 3b a9 3d 74 3b
       0.0060584354 0.0025712159 0.0039922865 0.0037268198
000060 ed 62 d3 3a 97 29 3a 3c 04 c2 a0 3c da c1 59 3c
       0.0016127505 0.011362455 0.019623764 0.013290847
000070 73 4d 54 3b 7d 6d c8 bb 38 61 01 3b 03 33 01 bb
       0.0032394796 -0.0061165676 0.0019741785 -0.0019714243
000080 7e cf 1b 3b ea c7 66 3b b6 7d e3 3b ca f4 fe 3b
       0.0023774798 0.0035214373 0.006942476 0.007780646
000090 51 ef 2a bb b6 06 26 bb 0f b6 a4 bb ab 74 df 3b
       -0.0026082585 -0.002533359 -0.005026586 0.006819328
0000a0 fe 30 f1 3b 5e 0b 83 ba f5 46 ca bb 19 ac fa bb
       0.0073605767 -0.0009997895 -0.0061730095 -0.00764991
0000b0 aa 33 a1 3b 6d 65 00 3c 33 0e 26 3c 8d 19 ba ba
       0.004919489 0.007836682 0.010135221 -0.0014198289
0000c0 9a df 14 3c 90 44 14 3c cd 99 9e bb be 0b 79 3b
       0.009086514 0.00904955 -0.004840112 0.0038001384
0000d0 79 1c a8 3b 2b 13 b1 3a 5a dd 8b bb 75 69 18 3c
       0.0051303473 0.0013509741 -0.0042683305 0.009302487
0000e0 a7 e4 97 ba b6 1c 31 3c 58 54 30 3b b5 95 0a 3b
       -0.001158853 0.010810068 0.0026905742 0.0021146361
0000f0 1d 64 bd 3b 9d 75 34 ba 53 e4 2a 3b 69 a3 b6 3a
       0.0057797567 -0.0006883981 0.0026076033 0.0013934198
000100 c3 02 2f bb 7b 52 33 39 5d 54 03 3c 6a 75 56 3b
       -0.0026704527 0.00017101497 0.008015719 0.0032723793
000110 02 f9 82 3b 2d 50 80 bb 80 78 f9 3b 02 91 33 3c
       0.003996969 -0.0039158077 0.0076132417 0.0109598655
000120 aa 57 47 3c 6e 97 a0 3b d1 e2 8a 3c 7d 97 35 3b
       0.012166897 0.0049008643 0.016953858 0.0027708702
000130 51 5c dc ba 39 fd 8e 3b 8a 05 2a 3a 6c 8f c7 bb
       -0.001681218 0.0043636826 0.0006485811 -0.0060900953
000140 a9 19 a6 3b 5b 66 02 3c 77 55 3a 3b 92 a0 22 3c
       0.005068977 0.007958974 0.0028432289 0.009925978
000150 3a c8 12 3b d8 6a 3a b9 70 24 de ba 66 3f dc 3b
       0.0022397176 -0.00017778145 -0.0016948115 0.006721425
000160 8c d8 d4 3b 44 a2 85 3b 9b 4b 81 ba d2 01 cd 39
       0.006495541 0.0040781815 -0.0009864451 0.00039102003
000170 d6 98 87 3c cc 03 e1 ba f9 a5 da b8 cb 38 bd 3b
       0.01655237 -0.0017167269 -0.00010425965 0.0057745925
000180 71 17 92 3b 01 3f 86 3c 1e f5 85 bb 74 82 15 bc
       0.004458361 0.016387464 -0.004088058 -0.009125341
000190 8e 54 97 bb 16 6f 41 bc ef ef d0 bb 88 46 dd 3b
       -0.004618234 -0.01180627 -0.0063762586 0.0067527927
0001a0 c1 da f9 3b 9b d0 46 3c 05 a6 44 3c 87 b0 06 3c
       0.0076249545 0.012134696 0.012002473 0.008220798
0001b0 a4 98 65 bc c8 e6 11 3b e2 88 f2 3b 89 9e a6 bb
       -0.014013443 0.00222628 0.0074015716 -0.005084817
0001c0 9a ee 19 bb 4c 4f 0f 39 5b ae e3 3b 04 82 34 3a
       -0.0023488165 0.00013667083 0.006948275 0.0006885829
0001d0 77 5b f9 3b 42 68 3e 3c 08 b0 3d 3b 39 1d 81 3b
       0.0076097804 0.011621537 0.0028944034 0.003940251
0001e0 85 ba f1 3b e9 6c f9 bb ad 65 85 3c dc 53 d9 38
       0.007376971 -0.00761186 0.016283834 0.00010362986
0001f0 38 ed f6 3b e7 0a 1f bb f6 e1 73 3b 88 68 59 3c
       0.007535603 -0.0024267973 0.003721354 0.013269551

weight f4 [128, 128]
000000 71 ff 07 3d 3b 44 c8 bd 41 88 09 3e 6a b0 05 be
       0.033202592 -0.09778639 0.13430883 -0.13055578
000010 5f 12 ad bd 30 f1 b5 bd 40 54 b4 bd d2 33 a6 bd
       -0.0845077 -0.088838935 -0.08805132 -0.08115353
000020 be 3d ce bd f8 16 ea bd 70 48 1b bc d0 55 15 3d
       -0.1007037 -0.11430162 -0.00947772 0.03645879
000030 44 0c a4 bd f6 89 16 3d 37 dd 1b 3e e6 f3 f4 3d
       -0.08010152 0.036752664 0.15221106 0.119605824
000040 e4 f2 af 3d f8 fa 54 bc 97 dc 40 bd 97 09 d6 3a
       0.085912496 -0.012999289 -0.04708537 0.0016329762
000050 0f 44 ec bd d6 d3 3d bd 8c 71 f7 b7 c5 3d d2 3d
       -0.11536419 -0.0463446 -2.9497569e-05 0.10265688
000060 64 36 c6 bd a3 60 14 3d 22 ad 53 3c 58 15 5c bd
       -0.09678343 0.036224972 0.012919696 -0.053731292
000070 a4 6d 00 be 78 68 96 bd 4d 77 f6 3c d6 eb cb bd
       -0.12541825 -0.073441446 0.030086184 -0.099570915
000080 93 96 85 3c 03 43 e8 3c 18 47 62 bd 35 0d 3f 3d
       0.016307151 0.028352266 -0.05524358 0.046643455
000090 ad 1d a3 3d fb 26 a3 3d e2 26 06 3e 80 84 0d be
       0.079646446 0.07966419 0.1310077 -0.13820076
0000a0 80 fc d9 3c a9 c6 8a 3b 6b 2f e1 bd cf 9c 1f be
       0.02660966 0.004235108 -0.109953724 -0.15587161
0000b0 f4 3f 84 bd 11 66 fc bd 19 e0 4e 3d 54 17 ea bd
       -0.064575106 -0.12324155 0.050506685 -0.11430231
0000c0 16 84 0d 3e 74 d3 02 3e 83 0c 65 bc 08 06 1b be
       0.13819918 0.12775975 -0.013980034 -0.1513902
0000d0 57 58 65 3c bc 87 e1 3c 0f 30 18 3e 1a b3 e4 3d
       0.013998113 0.027530544 0.14862083 0.111669734
0000e0 ad 00 66 3d 6b ff 27 bb 9d 50 b6 bd 39 51 02 be
       0.05615299 -0.0025634419 -0.089020945 -0.12726296
0000f0 89 02 07 3c 5d ea e9 3d d9 94 26 bd 04 f6 12 3e
       0.0082403505 0.114216544 -0.040669296 0.1435166
000100 da 2e e0 3c d6 a2 ba 3c 41 fa a2 3d 95 6e b7 bc
       0.02736609 0.022782724 0.079578884 -0.022391597
000110 21 63 74 bd 42 03 8f 3d 9a 1f 01 bc e9 65 be bd
       -0.05966485 0.06983043 -0.00788107 -0.092967816
000120 04 ec f6 bd 5c 8f a4 bd f9 27 7b bd fa d7 c2 bd
       -0.12056735 -0.08035156 -0.061317418 -0.095138505
000130 d1 9b 8b 3d 53 07 a1 3d 6a df 09 bc 4c 09 f5 bd
       0.06816829 0.07862725 -0.0084150825 -0.11964664
000140 5b 2f ed 3c b0 55 06 3e 64 f8 0d be a0 86 10 3e
       0.028953245 0.13118625 -0.13864285 0.14113855
000150 77 59 b6 3d e3 55 09 3d 27 eb 8f bd e0 6a e6 bd
       0.08903783 0.033529174 -0.070272736 -0.112508535
000160 ec 5e 75 bd eb a6 d0 bd e4 76 ea bc 53 ea 90 bd
       -0.059904978 -0.10188087 -0.028621145 -0.07075944
000170 1e 0c a7 bc d2 3b 1f be d9 b0 83 3c b0 15 40 3d
       -0.02039152 -0.15550163 0.016075538 0.046895683
000180 20 73 7c 3d 64 a7 f8 3d db 32 0c be 99 93 08 bd
       0.06163323 0.12141302 -0.13691275 -0.033343885
000190 c3 95 e8 bd ae 4a 6f 3d f8 6a 5e bd fa 27 fb 3c
       -0.1135669 0.05842083 -0.054301232 0.03065871
0001a0 d1 3b 09 3e 67 3b 3c 3d 7e 6f 99 bd 47 50 ca bd
       0.13401724 0.045955088 -0.074919686 -0.09878593
0001b0 8c 4f 29 bd 2d ec 02 3e 77 e2 00 3e a8 60 0a 3e
       -0.041335627 0.12785406 0.1258639 0.13513434
0001c0 4c bb 7e bd 37 b5 1e be df 16 86 3c 0f 4c cc bd
       -0.06219034 -0.15498815 0.016368328 -0.099754445
0001d0 4e 71 0f 3e 8a 7b 79 3d 13 43 05 3e c8 3b b5 bc
       0.14008066 0.06090883 0.13013868 -0.022123232
0001e0 4d 76 9b 3d 6f b2 1a bd 41 9d cc bd 3b 0e 0f be
       0.075909235 -0.037767824 -0.09990931 -0.13970272
0001f0 4a 0c 9f bd 79 66 a3 3c 18 94 93 3d 57 7a 00 3e
       -0.07766016 0.019946324 0.07205981 0.12546669
000200 45 e7 9a 3d f4 53 e3 3d 48 6a 05 be a8 aa 71 3d
       0.075636424 0.11099997 -0.13028824 0.05900064
000210 24 d6 7e bc a2 ab 89 bd 46 8d c6 bd 0a 0f ea 3d
       -0.015553985 -0.067221895 -0.096949145 0.1142865
000220 4c 81 03 3e 4b 64 8a 3d d9 6b 14 be e1 e9 8e 3d
       0.12842292 0.067574106 -0.14494266 0.069782026
000230 7c 27 d3 3b 64 e1 02 3e 41 25 ed 3d 13 54 e5 3d
       0.006443916 0.12781292 0.11579371 0.111976765
000240 39 7e 96 bd 0b 15 c3 bc 8a 3e 76 bc 93 a3 ce bd
       -0.07348294 -0.023813745 -0.015029559 -0.10089793
000250 d9 e2 ce bd 88 e9 d2 3b 9a 55 0f 3e 25 a1 10 3e
       -0.101018615 0.0064365305 0.13997498 0.14123972
000260 e9 18 07 be 3d 2c ba bd 7a ae f5 bc 0f 47 e4 3d
       -0.13193096 -0.09090469 -0.029990423 0.11146366
000270 bc ee 23 bd fb b3 0e be 43 ff f8 3d d5 e2 b7 3d
       -0.040022597 -0.13935845 0.12158062 0.08978812
000280 b8 26 03 be ea 81 13 be da bc 3d 3d 41 b0 88 3c
       -0.12807739 -0.14405027 0.04632268 0.016685607
000290 69 7c ef bc 40 99 08 be 0f 24 8e bd 08 28 02 bd
       -0.029234128 -0.1333971 -0.069404714 -0.031776458
0002a0 fc 7b 3f 3d 5a f2 e5 bd 3f 5d f1 3d 89 ef 7c 3d
       0.0467491 -0.112278655 0.117853634 0.061751876
0002b0 68 30 a6 bd 49 6c cf 3d 09 00 1e 3d 89 11 48 3d
       -0.081147015 0.10128076 0.038574252 0.048844848
0002c0 fd 95 2f 3d c3 a2 c4 bd 81 7b 9b bd d1 f9 f4 3b
       0.04286765 -0.09601357 -0.07591916 0.0074760695
0002d0 99 a1 82 3d 63 40 ab bd 39 f6 fe bd e8 d4 c6 bd
       0.063784786 -0.0836189 -0.12449307 -0.097085774
0002e0 27 7d 06 be 7e 12 e7 3d 97 54 d0 3d 2c 19 02 be
       -0.1313368 0.11282824 0.10172384 -0.12704915
0002f0 6d 33 fa bd bf 43 8b 3b 4c 09 d7 3d e0 a4 b7 3d
       -0.1221684 0.0042500193 0.1049982 0.08966994
000300 b3 e7 85 3d 6e 7d 49 38 1e 87 30 bd 9a 17 f0 bd
       0.06538334 4.803895e-05 -0.043097608 -0.11723252
000310 0f ad 57 3b f4 43 cc 3d b7 b8 e3 bd 2d 60 48 3d
       0.0032909547 0.099738985 -0.11119216 0.048919845
000320 ba 3e 04 be 9d 31 eb 3d 32 b8 22 bd d1 91 f0 bd
       -0.12914553 0.11484072 -0.039726444 -0.11746562
000330 73 57 cd 3d cd b5 c6 bd 3a 18 e6 3d d5 36 a4 3d
       0.10026445 -0.097026445 0.112350896 0.08018271
000340 e0 e6 b4 bc 53 48 ae bd ed a2 0d be 5f b5 d8 3d
       -0.022082746 -0.085098885 -0.13831683 0.10581469
000350 bf 8e c6 bc 12 30 c5 3d 5b 2a 87 bc 0a f0 11 3e
       -0.024237989 0.09628309 -0.016499689 0.14251724
000360 fe 87 45 3d 45 8d 81 bd b3 34 b8 bd 6b d3 93 3d
       0.048225395 -0.06325773 -0.089944266 0.07218059
000370 71 45 d3 3d f3 84 cb 3c 2a 78 03 3e eb 73 d6 3d
       0.10315979 0.024843669 0.12838808 0.10471328
000380 53 8b 0e 3e ae 67 8d 3c ad 74 a2 3d 55 79 5c 3c
       0.13920335 0.017261352 0.079324104 0.013456662
000390 3a 9d f0 bd 5b 7e ae bb 46 2f 32 bd 15 65 96 bd
       -0.117487386 -0.0053251213 -0.043502115 -0.073434986
0003a0 6e 1c 18 3e bb 39 ff 3c 16 8b bf 3d 0c 62 81 3d
       0.14854595 0.031155458 0.093527004 0.06317529
0003b0 61 00 10 be 24 2c 30 3e d3 93 26 bd 30 90 65 bd
       -0.14062645 0.17204338 -0.04066832 -0.05604571
0003c0 71 70 ad 3d 62 8d c6 3d 0c 79 52 3d f6 7a 00 3c
       0.08468712 0.096949354 0.05138497 0.007841816
0003d0 0c b2 a2 3d d4 e9 1e 3e e0 ac d3 bd 8b 46 3e bd
       0.07944116 0.15518886 -0.10335708 -0.046453994
0003e0 b3 fc a1 3d 13 0c ca 3d a1 5f 84 3d cf 8b 08 be
       0.07909527 0.09865584 0.06463552 -0.13334583
0003f0 7c d4 1b bd d2 a9 a0 3d 2b c9 fd 3d fe 5b c5 3d
       -0.038044438 0.07844891 0.12391885 0.09636687

att_src f4 [1, 2, 64]
000000 25 fb fd bb 97 f5 84 3e ce fa 66 be 02 bb 89 be
       -0.007750886 0.2596862 -0.22556612 -0.26900488
000010 b1 c4 17 3e d8 ae 27 bc fe 05 19 bd 7c f7 7d 3d
       0.14821126 -0.010234557 -0.03735923 0.062003598
000020 55 6c 78 be 07 35 72 3e 09 14 73 3e a4 17 08 be
       -0.24260075 0.23653041 0.23738112 -0.13290268
000030 a2 c3 4f be ec b7 00 3e e2 ec f9 3d a5 aa 47 3e
       -0.20289472 0.1257016 0.12203385 0.1949869
000040 09 2b 27 3e 9c 4c 90 3d 74 c1 46 be d6 ad 81 3e
       0.1632501 0.07045862 -0.19409734 0.2532794
000050 61 af 18 3e b2 dc 22 3d f5 47 64 be a2 3b 65 be
       0.14910652 0.039761253 -0.22293074 -0.2238603
000060 db 43 44 3e 36 41 7f 3e 03 21 9d bd 41 44 90 be
       0.1916651 0.2492722 -0.07672312 -0.28177074
000070 e7 61 a8 bd 16 d6 14 be 00 0a 87 be b6 6b 90 3d
       -0.082217984 -0.14534792 -0.26374817 0.07051794
000080 7f 67 98 3e 5e 06 b5 3d a2 63 81 3e 53 13 c6 bd
       0.2976646 0.08839105 0.25271326 -0.096716546
000090 1d fa d2 bd 9f 65 04 be 85 a5 5b be b4 25 32 be
       -0.103016116 -0.1292939 -0.2144986 -0.17397195
0000a0 eb d0 6a be 1d 09 f5 bd 7f 60 86 3c c8 cc 1c 3e
       -0.22931258 -0.11964629 0.016403435 0.15312493
0000b0 e2 4d 9f 3d 47 40 c5 3d 1c ce c0 3c c8 f9 7c be
       0.07778527 0.096314006 0.02353578 -0.24704659
0000c0 f9 a6 0f be 83 6b 94 be bb 38 9a 3e 38 7c 7e be
       -0.14028539 -0.28988275 0.30121407 -0.24852073
0000d0 c7 bc e7 bd 28 69 94 3e 29 19 83 bd 84 dc 95 3d
       -0.11315303 0.28986478 -0.06401283 0.07317451
0000e0 51 83 ab 3c 89 9f 79 be 05 ea 73 bd 33 77 36 3e
       0.02093664 -0.24377264 -0.05954935 0.17818908
0000f0 81 34 54 3e d9 c4 54 3e 68 e8 5e 3e 82 a6 50 be
       0.20723154 0.20778216 0.21768343 -0.20376018
000100 8b 1c d6 bd d1 81 f5 3d 2b 77 d0 3d a8 22 64 be
       -0.10454663 0.11987651 0.101789795 -0.22278845
000110 61 b6 63 3c 05 1d 9a 3e 96 08 1f be 95 9a 2e 3e
       0.013898463 0.30100265 -0.15530619 0.17051156
000120 a7 4b 2b 3e c8 1b 9a 3c 2a 26 1f be a4 ae 91 be
       0.16728078 0.018812075 -0.15541902 -0.28453553
000130 9d 48 4d be f9 c8 03 3e bb ea 3d 3d bf 60 98 3d
       -0.20047231 0.12869634 0.046366435 0.07440328
000140 6a 3d 8c 3e b7 79 42 bd 82 d7 3a be 09 59 b7 bd
       0.27390605 -0.047479358 -0.18246272 -0.08952529
000150 b9 10 07 3e a7 4f eb bd 2c c4 19 3e b7 96 8b be
       0.13189973 -0.11489802 0.1501624 -0.27263424
000160 d0 66 33 3e 6d c4 08 bd 4c e1 18 be dd 22 81 3d
       0.17519689 -0.03339045 -0.14929694 0.06305478
000170 73 cf db bd 20 48 65 be 69 a8 f0 bd d2 12 63 be
       -0.10732927 -0.22390795 -0.11750872 -0.22175148
000180 35 1f 9b bb c2 07 35 3e d5 a0 12 3e 9a b4 45 3e
       -0.004733945 0.1767874 0.14319165 0.19307175
000190 c9 36 1e 3d 38 63 8b be 21 63 02 3e dc 00 5c 3e
       0.038626466 -0.27224135 0.12733127 0.21484703
0001a0 d3 0a 05 be b7 05 6c 3d 76 b2 34 bb 16 d7 84 be
       -0.1299241 0.057622638 -0.0027572191 -0.25945348
0001b0 a1 73 a9 bd f5 10 ac 3c b6 88 17 be 62 05 39 be
       -0.082740076 0.02100418 -0.14798245 -0.1806846
0001c0 a8 9c 31 3e a8 4c 70 3e e5 b0 d1 3d 8c d8 84 3e
       0.17344916 0.23466742 0.10238818 0.25946462
0001d0 67 a2 d6 3b 64 3a 0d 3e 4d 41 9f be 58 2c 9f 3c
       0.0065501216 0.13791806 -0.31104508 0.019430324
0001e0 60 4e 1a 3e 5f 66 90 bd 6c 68 03 bd ae 54 95 3e
       0.1506896 -0.07050776 -0.032082006 0.29166168
0001f0 49 8a 74 3e 5d d0 83 3e 0d eb 98 be 39 89 19 be
       0.23880877 0.25744906 -0.2986683 -0.14993753

att_dst f4 [1, 2, 64]
000000 95 d8 45 be 14 f9 7f 3e 4c 02 c8 3b d4 8d 8c 3d
       -0.193209 0.2499736 0.0061037894 0.06862989
000010 f7 81 94 bd a0 b6 84 be 66 22 44 3d ee 92 80 3d
       -0.07251351 -0.25920582 0.047884367 0.062780246
000020 7e c2 e5 bd e5 3d 37 be 21 f8 32 be 9f 6d 20 bd
       -0.11218737 -0.17894705 -0.17477466 -0.039167043
000030 26 45 33 be 97 21 61 3e 84 75 2c 3e 92 db 86 3e
       -0.17506847 0.2198547 0.16841704 0.26339394
000040 f7 7f a2 3d 28 68 d3 3d 22 97 99 3b 11 20 87 be
       0.079345636 0.103226006 0.004687206 -0.26391652
000050 76 3b 56 be f0 d6 91 be 51 a2 32 bc bf 61 42 be
       -0.2092112 -0.28484297 -0.010902957 -0.189826
000060 ac 92 f4 bd 6b 7d e9 3d 00 72 b7 bd 77 7c 68 be
       -0.11942038 0.11400875 -0.08957291 -0.2270373
000070 13 d1 5e bd 1f 28 4b be c4 a5 0a 3e 4e c8 20 be
       -0.054398607 -0.19839524 0.13539797 -0.1570141
000080 7e 1d f8 3d e6 b5 b6 bd 34 28 6a ba 20 5b 6f 3d
       0.12115 -0.08921413 -0.00089323823 0.058436513
000090 b1 1e db ba 69 a3 7d bd 57 70 e2 3d 43 2f 2c be
       -0.0016717521 -0.06192342 0.110565834 -0.16814904
0000a0 3c 06 f6 bd 9a 88 2d 3d 4a 5a df 3d b1 8d 79 be
       -0.12012908 0.0423666 0.10905893 -0.24370457
0000b0 51 67 d9 bd 49 9f 43 be ed 3d 41 be 89 52 40 3d
       -0.10615409 -0.19103731 -0.18871279 0.04695371
0000c0 8c 38 3b be 95 5c 6a bd f2 2b 8d be 50 a1 66 be
       -0.1828329 -0.0572172 -0.2757259 -0.22522473
0000d0 f1 ba 80 3b 18 88 15 3c ca b3 e5 bd 6c f6 85 3e
       0.003928535 0.009126686 -0.11215933 0.26164567
0000e0 98 57 83 bd c4 fb 0e be b3 c5 81 3d d7 19 c3 3d
       -0.064131916 -0.13963228 0.06336536 0.09526413
0000f0 10 ef 0c 3e 9c 71 84 bd 78 7b 48 be 97 dd c8 bd
       0.1376307 -0.06466982 -0.1957835 -0.0980789
000100 6f ed 71 be 2e 33 76 3e 84 34 55 bd f4 96 83 3e
       -0.2362573 0.24042961 -0.052052036 0.25701106
000110 e0 9c 96 bd 34 51 bd 3d f1 cf 6a bd 20 cb 6c bd
       -0.0735414 0.09244004 -0.057327215 -0.057810903
000120 77 86 15 bd 52 c0 0f be ea 78 75 3d 28 50 00 3e
       -0.03650519 -0.14038208 0.059929766 0.12530577
000130 de ef 06 3e e0 4b cc 3d 45 ca dd bd b6 c7 0d 3e
       0.1317744 0.099754095 -0.108295955 0.13845715
000140 3b 99 8b be 59 f9 b1 3d ce 75 ec bc 98 4a 97 bd
       -0.27265343 0.086901374 -0.028864767 -0.073872745
000150 1a 35 72 be 05 4f 73 3e 94 a9 94 3e 29 2f 4c 3d
       -0.23653069 0.23760612 0.29035628 0.049849663
000160 57 cc 04 3e 9e 8c 58 bd 7c 8b 86 3d 36 ce 1a 3e
       0.12968574 -0.052868478 0.06569573 0.15117726
000170 95 68 3e 3e d2 4b 47 3e 42 ac 9b 3d c3 51 ae bd
       0.18594582 0.19462517 0.07601215 -0.085116886
000180 8b 53 82 bd cb 9e d5 bd 61 71 3e 3e ea a0 d3 bd
       -0.06363591 -0.10430678 0.18597938 -0.10333426
000190 cd eb e6 bd 83 4e 58 3e f3 4a 42 bb 10 b2 a7 bd
       -0.11275444 0.211237 -0.0029646724 -0.081882596
0001a0 76 5e 85 be a5 a7 a1 bd 23 ed e0 3d f5 64 58 3d
       -0.2604863 -0.07893304 0.1098273 0.052830655
0001b0 a1 79 96 3e 8b 0c 21 be 4a 81 6f bd 02 4e 3b be
       0.2938967 -0.15727441 -0.05847291 -0.18291476
0001c0 b6 2a 73 3e dc 19 26 be 87 87 30 be 5d 14 71 3e
       0.23746762 -0.16220802 -0.172392 0.23542924
0001d0 7c 69 4a 3e 78 46 3c 3e 89 af 1e be 1a 72 1a be
       0.19766802 0.18386257 -0.15496649 -0.15082589
0001e0 73 e5 3c 3e 99 63 8a be a6 97 4e 3e 0f 6c 89 be
       0.18446903 -0.27029112 0.20175037 -0.26840255
0001f0 14 07 8d bc 10 11 68 3e c3 50 81 3d d4 60 6c 3e
       -0.01721529 0.22662759 0.06314232 0.23083812

bias f4 [128]
000000 a7 4e ef 39 69 cb bb ba e7 00 79 bb 95 92 d6 3b
       0.00045644233 -0.0014327589 -0.0037994923 0.0065482357
000010 15 77 3d 3c 76 aa 16 3c 7d 5b 0c 3b d8 24 d9 ba
       0.011564036 0.0091959145 0.0021416836 -0.0016566766
000020 c2 d7 d4 3b b8 fa 0b b7 f0 dd 34 bb de ed 54 3c
       0.006495447 -8.343421e-06 -0.0027598105 0.012996165
000030 1f cd f3 ba 36 f6 0b bc 0b f7 f1 ba ff 50 ca 3b
       -0.001860056 -0.008542588 -0.0018460465 0.0061742063
000040 38 c1 83 bb 79 eb f4 3b 3f 83 79 3c 84 80 2e bc
       -0.004020836 0.0074743596 0.015229045 -0.010650758
000050 64 62 6f 3b 5e e1 81 3c 18 16 4b ba 20 20 54 3c
       0.0036527151 0.015854534 -0.00077471277 0.012947112
000060 f2 e8 65 bb 76 92 0f 3c 4d d6 16 3c 26 f7 24 3b
       -0.0035081473 0.008762946 0.009206367 0.0025171726
000070 f8 0f 1f 3b 71 56 80 3b 19 bf 04 bb 8d 94 b2 3b
       0.0024270993 0.0039165546 -0.0020255505 0.0054498375
000080 c7 bd c4 3b 18 86 b1 3b 06 5d aa 3b f1 55 81 3b
       0.0060040685 0.0054175965 0.0051990775 0.0039470126
000090 f3 3e 61 bb 1b 51 2a 3c cc 7e 88 b8 e5 8f a9 3b
       -0.0034369796 0.010395314 -6.508603e-05 0.0051746243
0000a0 44 4d 1c 3c 0a af 78 3c 8a f4 af b8 28 9b 6d ba
       0.009539906 0.015178451 -8.390199e-05 -0.00090639526
0000b0 5a 0f ad 3b cc d7 65 3b 64 11 06 3b 81 d9 55 bb
       0.005281371 0.0035071252 0.0020457143 -0.0032630863
0000c0 6a 3a b2 ba 32 9c 08 3b 51 1e cb 39 be 93 b8 3a
       -0.0013597731 0.0020845053 0.00038741765 0.0014082117
0000d0 ec 1e 1b 3c c8 21 b1 3b 65 4b 7d bb fd 2e ad 3c
       0.009467822 0.0054056384 -0.0038649675 0.02114057
0000e0 4b 35 96 bb 23 9f d6 b9 8e 98 5a 3a f0 ec 95 3b
       -0.0045839897 -0.00040935827 0.00083387725 0.0045753643
0000f0 a6 ed da 3b 59 c1 2d 3b a2 2f 4f 3c 3f d3 94 3b
       0.006681162 0.002651295 0.012645634 0.004541784
000100 72 f2 80 bb 6f 6c 19 3a f4 06 27 bb 91 aa ba 3b
       -0.0039351517 0.00058526447 -0.0025486322 0.0056966026
000110 f7 82 72 39 3c 8d b4 bb 68 64 76 3c 23 c4 08 3c
       0.00023127707 -0.0055100005 0.015038587 0.008347544
000120 b6 a8 72 3a ef ef a9 bb 5a f0 80 3b 4c 2b 30 3c
       0.0009256707 -0.005186073 0.003934902 0.01075251
000130 10 db d1 3b 9a cd 68 39 0b 0a 2a 3c 2f f0 48 3b
       0.006404288 0.00022201837 0.010378371 0.0030660739
000140 5e c4 2d 3c fb 27 5f 3c 51 fd 72 3b 4a 30 e2 3b
       0.0106059 0.013620372 0.0037077258 0.006902729
000150 15 28 57 39 47 46 35 3a 8c be ee 3a b8 fc 0f ba
       0.0002051893 0.0006915074 0.0018214746 -0.0005492675
000160 80 c3 0d bc e4 f1 05 bc 09 1b 85 3c d6 e2 48 bb
       -0.008652568 -0.008175347 0.016248243 -0.0030652783
000170 dd 07 90 bb b0 99 ea bb fa 11 44 3b 43 55 44 3c
       -0.0043954686 -0.0071594343 0.0029917941 0.011983219
000180 4e a6 e2 3b 9a 02 3f 3b a5 05 a6 3a 55 c3 02 3b
       0.0069167977 0.0029145838 0.0012666477 0.0019952853
000190 dc 2d d7 3a b2 81 b6 ba 92 4e 6b 3a 41 19 0d b8
       0.0016416865 -0.001392415 0.00089762465 -3.364054e-05
0001a0 6d c5 e6 ba 52 db 85 3b 40 b0 29 3b f9 f2 14 3c
       -0.0017606445 0.004084983 0.0025892407 0.009091132
0001b0 c2 bb 27 3a cf 12 81 bb ba 0e b3 b9 52 8d d0 3b
       0.00063985225 -0.0039390097 -0.00034152513 0.006364503
0001c0 68 dc b6 3b 11 19 08 3c 3e 0c d2 3a a7 f2 34 3b
       0.0055804737 0.008306758 0.0016025377 0.0027610452
0001d0 80 66 a0 3b d2 b7 35 3c 4e 01 0a bb be aa 72 bb
       0.0048950315 0.011091189 -0.0021057907 -0.003702804
0001e0 99 5f b1 b9 e8 50 04 3c c0 ab 47 ba a0 c9 9e 3b
       -0.00033831297 0.00807593 -0.00076168403 0.004845813
0001f0 6b 0a be 3b 4d 3a 3e bc 9b 28 0a bc f7 2a 5e 3c
       0.0057995818 -0.01161058 -0.008432533 0.013560048
